target_net_weights.pth (torch, 70895 bytes, 6 tensors)

layer1.weight f4 [128, 1]
0.6246476 0.8826748 0.32932258 -0.39240146 -0.37467134 -0.47133327 -0.3719288 0.7683339
-0.87757933 0.66499794 -0.06413424 -0.16838002 -0.017048001 0.09612012 -0.41069424 -0.3326099
-0.42684317 0.55257964 0.98504543 -0.017264009 0.59985983 0.6725608 0.91558266 0.21130168
0.1925782 -0.5270592 -0.48131382 0.26199543 0.66074073 -0.09570968 0.30968273 -0.83656955
-0.55783296 -0.93788505 -0.04234016 0.68444955 -0.019075036 0.545581 -0.49041796 -0.32539797
0.49993873 0.82810307 -0.95240116 -0.4099636 0.11307049 0.4682411 0.61728823 0.5656061
0.6778747 0.21357417 0.651114 -0.5621623 0.56943226 -0.33192372 0.2780577 -0.4255545
0.32871008 0.6505518 0.3463906 -0.5581968 0.19538212 0.6311674 -0.73578644 -0.5056325
-0.68672454 0.56830573 0.65640783 -0.8077084 -0.6135726 -0.5995623 -0.21545112 0.37294137
-0.3911085 -0.6153114 -0.08946121 0.07204437 0.3000735 0.051792145 -0.054819703 0.2249521
-0.8492774 0.71489584 -0.3709302 0.11603069 0.037039876 0.35987103 0.4657129 0.108575106
0.587592 0.43825424 0.96531093 -0.94293034 0.7339189 -0.17664528 -0.88671064 0.84747195
-0.20938051 0.6099808 0.146577 -0.51639986 0.8520442 -0.2797426 0.42988944 -0.98728514
0.8297689 0.33799875 -0.5599961 -0.3078493 -0.012623429 0.47556293 -0.9061333 0.9874178
-0.37845075 0.020578384 -0.4636737 0.29196596 -0.12928534 -0.35174298 0.3562585 -0.64821386
-0.27121162 0.25001228 -0.51163876 0.7537564 0.78925204 -0.83805907 -0.4167968 0.3412274
00000000: e8e8 1f3f faf6 613f f89c a83e d8e8 c8be
00000010: ecd4 bfbe 9852 f1be 746d bebe 88b1 443f
00000020: 0aa9 60bf 4e3d 2a3f d058 83bd d06b 2cbe
00000030: 40a8 8bbc a0da c43d 8446 d2be d84b aabe
00000040: 308b dabe dc75 0d3f f02b 7c3f 406d 8dbc
00000050: 6a90 193f f22c 2c3f a063 6a3f 785f 583e
00000060: 3833 453e 5aed 06bf c46e f6be 4424 863e
00000070: 4e26 293f 7003 c4bd bc8e 9e3e 6c29 56bf
00000080: 24ce 0ebf 3c19 70bf e06c 2dbd 1638 2f3f
00000090: 4043 9cbc 32ab 0b3f 1018 fbbe 909a a6be
000000a0: f8f7 ff3e 90fe 533f 90d0 73bf c0e6 d1be
000000b0: 8091 e73d 4cbd ef3e 9a06 1e3f 90cb 103f
000000c0: 3289 2d3f 30b3 5a3e 68af 263f dee9 0fbf
000000d0: 50c6 113f e8f1 a9be 945d 8e3e 48e2 d9be
000000e0: b04c a83e 908a 263f 1c5a b13e fce5 0ebf
000000f0: 4012 483e 3094 213f 805c 3cbf 2271 01bf
00000100: 2ecd 2fbf 7c7c 113f 580a 283f fac5 4ebf
00000110: 1813 1dbf ea7c 19bf 389f 5cbe 2cf2 be3e
00000120: 603f c8be 0c85 1dbf 7037 b7bd 008c 933d
00000130: 3ca3 993e 0024 543d a08a 60bd d859 663e
00000140: 3e6a 59bf 6a03 373f 90ea bdbe 80a1 ed3d
00000150: 20b7 173d 0441 b83e ec71 ee3e a05c de3d
00000160: 6e6c 163f dc62 e03e 9e1e 773f e263 71bf
00000170: 1ce2 3b3f 80e2 34be 78ff 62bf ecf3 583f
00000180: d867 56be b427 1c3f 4818 163e c832 04bf
00000190: 921f 5a3f 6c3a 8fbe 781a dc3e b8be 7cbf
000001a0: bc6b 543f 2c0e ad3e e85b 0fbf 6c9e 9dbe
000001b0: 80d2 4ebc fc7c f33e 5af8 67bf 6ac7 7c3f
000001c0: 4cc4 c1be 0094 a83c a466 edbe 907c 953e
000001d0: 6063 04be a817 b4be 8467 b63e 58f1 25bf
000001e0: 40dc 8abe 9c01 803e c2fa 02bf 2ef6 403f
000001f0: 6c0c 4a3f 0a8b 56bf 6466 d5be 5cb5 ae3e

layer1.bias f4 [128]
0.960183 -0.65426075 0.6227839 -0.6335393 -0.96477795 -0.30322838 0.120033264 -0.5625005
-0.49270868 0.3956387 -0.90412784 -0.124700665 -0.5060606 0.5070232 0.12471306 -0.38554013
0.84574616 0.9625567 0.45899022 -0.33593714 0.66230214 -0.41872644 -0.6518663 -0.5753789
0.70537066 -0.23999655 -0.06873989 0.22105813 -0.48128974 0.5358211 0.67099583 -0.111188054
0.12645423 -0.8420776 0.5990919 -0.96346235 -0.5793927 0.7944076 -0.5834085 0.13835478
0.5407944 0.41555142 -0.043540955 0.881145 0.29580975 0.9901526 -0.103024006 0.37168062
-0.65474856 0.117726564 -0.036658645 -0.84662247 0.36479914 -0.9318887 0.4050429 -0.70896065
-0.37887657 0.09892893 -0.80477464 -0.7680156 -0.43425107 0.01845026 -0.93605435 0.60943425
0.08067918 -0.75313246 -0.599682 0.5835979 0.48729908 0.6401224 0.43437755 0.0024056435
-0.8505324 -0.7255405 -0.72948205 0.9023719 0.22238874 0.8906939 -0.8472744 0.8338736
0.6333673 -0.8876363 0.46335316 0.23755407 -0.5065973 -0.15190792 0.7278607 -0.6076765
-0.9738797 0.43926358 -0.063420296 -0.16889119 0.5158315 -0.7050966 -0.86714745 0.8142663
0.17117023 0.5862235 0.3199581 -0.87772334 0.7384777 0.7715703 -0.18044424 0.17887533
0.8760371 -0.6593926 -0.96130705 0.7325698 -0.60958004 0.93529725 -0.7133131 -0.23151493
-0.4141767 0.95574546 -0.43311512 -0.47845352 0.20557034 0.13388038 -0.80540586 -0.6215606
0.21688747 -0.04833424 -0.19465744 -0.9100728 -0.22368729 -0.05773604 -0.35052657 -0.3453349
00000000: 8ece 753f a27d 27bf c46e 1f3f a22f 22bf
00000010: b0fb 76bf c040 9bbe 00d4 f53d 0800 10bf
00000020: 5044 fcbe 2891 ca3e ec74 67bf 1063 ffbd
00000030: 308d 01bf 46cc 013f 9069 ff3d 8465 c5be
00000040: d282 583f 1e6a 763f c400 eb3e f4ff abbe
00000050: a28c 293f 5063 d6be b6e0 26bf 084c 13bf
00000060: 2c93 343f a8c1 75be 80c7 8cbd 105d 623e
00000070: 9c6b f6be 922b 093f 62c6 2b3f 90b6 e3bd
00000080: 387d 013e 6692 57bf 165e 193f 78a5 76bf
00000090: 1453 14bf 4c5e 4b3f 425a 15bf e0ac 0d3e
000000a0: 8071 0a3f 28c3 d43e 0058 32bd b892 613f
000000b0: 6074 973e a47a 7d3f 40fe d2bd ec4c be3e
000000c0: 9a9d 27bf a01a f13d 6027 16bd 40bc 58bf
000000d0: f4c6 ba3e 4290 6ebf c861 cf3e 727e 35bf
000000e0: 1cfc c1be 409b ca3d b605 4ebf ac9c 44bf
000000f0: 2856 debe 0025 973c 42a1 6fbf e203 1c3f
00000100: 203b a53d 4acd 40bf c284 19bf ac66 153f
00000110: 447f f93e 10df 233f bc66 de3e 00a8 1d3b
00000120: 7ebc 59bf 06bd 39bf 56bf 3abf d801 673f
00000130: e0b9 633e 8404 643f fae6 58bf be78 553f
00000140: 5c24 223f 223c 63bf a03c ed3e 6041 733e
00000150: 5cb0 01bf c08d 1bbe 1455 3a3f b090 1bbf
00000160: 2e50 79bf 28e7 e03e 80e2 81bd d0f1 2cbe
00000170: 880d 043f 3681 34bf 60fd 5dbf c273 503f
00000180: 4047 2f3e be12 163f 8cd1 a33e 7ab2 60bf
00000190: e00c 3d3f a285 453f 60c6 38be 182b 373e
000001a0: f843 603f f4cd 28bf 3818 76bf b289 3b3f
000001b0: 700d 1cbf a46f 6f3f b09b 36bf 4012 6dbe
000001c0: f80e d4be bcab 743f 44c1 ddbe dcf7 f4be
000001d0: 0881 523e f017 093e 142f 4ebf 981e 1fbf
000001e0: c017 5e3e 20fa 45bd 4854 47be 88fa 68bf
000001f0: 480e 65be a07c 6cbd 3878 b3be bccf b0be

layer2.weight f4 [128, 128]
0.055399556 -0.018701505 0.0055792523 -0.08828845 -0.025387954 0.072938316 0.03325791 0.0500849
-0.033332583 0.018644975 -0.021974945 0.03377108 -0.008902236 -0.07502268 0.07690553 -0.03836538
0.0351866 0.056278832 -0.0788958 0.0058852276 -0.07816346 -0.023101857 0.076626614 -0.07369587
-0.08283022 0.07220454 0.04413009 0.023349302 -0.042009976 0.08218384 -0.032008234 -0.047542203
0.032707945 -0.051970772 -0.06727966 -0.053255323 0.023818702 -0.024302768 -0.0254927 0.013421579
0.06536169 -0.011020495 0.045903366 0.009293075 0.07992976 0.074485905 -0.05381283 -0.045515824
-0.021567311 -0.06783231 0.085869536 -0.032179162 0.0016674662 0.024359467 0.073987305 -0.08172653
0.08426823 -0.088011645 -0.043502197 0.03397704 -0.026891744 0.082821414 0.06260637 -0.050727934
0.051998883 0.024198286 0.08395267 0.054115605 -0.05370617 0.069537155 -0.026171096 -0.08614901
0.0667715 -0.037252754 -0.071806446 0.08196953 -0.04883115 -0.07045737 0.0341164 0.038379878
0.041723788 0.04419074 -0.02217999 -0.008199985 0.087726675 -0.014385646 0.045600057 0.040056743
0.035555627 -0.06117777 0.05308402 -0.0075806794 0.05611896 0.014379999 -0.06897831 0.041783974
0.05874613 0.086807884 -0.0031366528 -0.084904775 -0.06688978 -0.055856068 0.018919857 -0.057804864
0.011772404 0.018020159 -0.08108936 0.07251872 -0.036062527 -0.06902496 0.039739095 0.06636941
-0.050038707 -0.050778184 -0.04586739 0.083963536 0.07332928 -0.035780367 0.05796792 0.040891968
0.030867381 -0.036484398 -0.08089312 0.006183006 -0.05905176 0.05862827 0.05831563 0.029143535
0.05332827 0.08213761 -0.0410642 0.06310295 0.027989753 -0.013600029 -0.033932522 -0.05534658
0.023047013 0.042802494 -0.076973684 0.075578846 -0.06103459 0.07091909 0.0055938247 -0.0020070751
0.037731964 0.017336179 0.0012184969 0.019264955 0.047525883 0.008483338 -0.024931673 0.07202548
-0.07264998 0.023227738 -0.045229003 -0.07961544 0.0024363091 -0.051713128 -0.0021063203 0.07896181
-0.07548738 0.0703321 -0.066981964 0.037334185 0.073118545 -0.06007639 0.05549482 -0.047118027
-0.07357503 0.058359917 -0.077102505 0.014921965 0.01852299 -0.02968491 -0.085783355 0.08513557
0.009523997 0.05683612 -0.02222085 -0.006538725 0.060611635 0.053346194 -0.0695381 0.008093712
-0.08325579 0.01157188 0.03445671 0.049495466 0.07192908 0.031571686 -0.006948161 0.0033658894
0.0814811 -0.037921563 0.07355977 -0.039679036 -0.062458783 -0.07925074 -0.0031830985 0.0074282135
0.053981587 0.04085177 0.058909755 -0.005122549 -0.028442506 0.0051716184 -0.011461782 0.0314129
-0.079133555 -0.061715808 -0.0847994 0.026005786 0.05254138 -0.007897055 -0.039769977 -0.0136931
0.07727665 -0.081276864 0.06187056 0.011621445 -0.057722647 0.01650541 -0.0149807595 0.085761145
-0.061565313 -0.08653642 0.0699761 0.04299713 -0.0070137833 -0.0370816 -0.040937435 0.054565236
-0.074566394 -0.0055329013 -0.030649979 0.02505178 -0.0070381863 0.06940202 0.020130893 -0.064403586
0.0035622306 0.017385744 0.055123694 -0.071146525 0.080985546 -0.004784816 -0.027134784 0.05743451
0.0053881267 -0.036882136 0.07298762 -0.026287863 0.07838691 0.017683025 -0.02099777 0.013468942
00000000: a5ea 623d e633 99bc 29d2 b63b 93d0 b4bd
00000010: 66fa cfbc af60 953d 7239 083d d325 4d3d
00000020: bf87 08bd 59bd 983c cd04 b4bc 8b53 0a3d
00000030: afda 11bc 7ea5 99bd a680 9d3d 0425 1dbd
00000040: d31f 103d a284 663d 1f94 a1bd ded8 c03b
00000050: 2a14 a0bd 1b40 bdbc 6aee 9c3d dced 96bd
00000060: e4a2 a9bd f9df 933d c1c1 343d 0947 bf3c
00000070: a712 2cbd 0050 a83d 111b 03bd 9dbb 42bd
00000080: c4f8 053d 4edf 54bd ebc9 89bd 4122 5abd
00000090: 701f c33c 9916 c7bc 11d6 d0bc 2fe6 5b3c
000000a0: 5adc 853d 4e8f 34bc 2b05 3c3d fb41 183c
000000b0: 37b2 a33d 118c 983d d86a 5cbd cd6e 3abd
000000c0: eead b0bc abeb 8abd 5edc af3d 4cce 03bd
000000d0: e28e da3a 818d c73c a886 973d 3d60 a7bd
000000e0: d294 ac3d 733f b4bd 5c2f 32bd 822b 0b3d
000000f0: 134c dcbc 469e a93d c537 803d 18c8 4fbd
00000100: c8fc 543d 7c3b c63c 61ef ab3d 53a8 5d3d
00000110: 00fb 5bbd 7f69 8e3d c464 d6bc e46e b0bd
00000120: 7fbf 883d 5896 18bd 420f 93bd a4df a73d
00000130: 2c03 48bd f44b 90bd a3bd 0b3d 3834 1d3d
00000140: 90e6 2a3d 5901 353d cfb2 b5bc 3b59 06bc
00000150: 0baa b33d c6b1 6bbc 20c7 3a3d 8a12 243d
00000160: c7a2 113d 8b95 7abd a16e 593d 5967 f8bb
00000170: ffdc 653d 169a 6b3c 8044 8dbd ac25 2b3d
00000180: c89f 703d 55c8 b13d 4d90 4dbb 8ee2 adbd
00000190: 82fd 88bd 55c9 64bd d1fd 9a3c cbc4 6cbd
000001a0: 0be1 403c 039f 933c 2e12 a6bd b284 943d
000001b0: 4db6 13bd f55c 8dbd 76c5 223d afec 873d
000001c0: 63f5 4cbd c9fc 4fbd 72df 3bbd 13f5 ab3d
000001d0: a92d 963d 6f8e 12bd c56f 6d3d 567e 273d
000001e0: 97dd fc3c aa70 15bd 4bab a5bd d09a ca3b
000001f0: 42e0 71bd 3224 703d 5fdc 6e3d 6cbe ee3c
00000200: be6e 5a3d c337 a83d ef32 28bd 1f3c 813d
00000210: c44a e53c a8d2 5ebc d4fc 0abd 18b3 62bd
00000220: 17cd bc3c ab51 2f3d 61a4 9dbd 15c9 9a3d
00000230: 68ff 79bd 073e 913d 674c b73b 2289 03bb
00000240: d58c 1a3d 9a04 8e3c f9b5 9f3a 8ad1 9d3c
00000250: 80aa 423d b3fd 0a3c 823d ccbc 1882 933d
00000260: 83c9 94bd 1948 be3c 0c42 39bd 6b0d a3bd
00000270: 7caa 1f3b 25d1 53bd 310a 0abb bbb6 a13d
00000280: 2199 9abd 470a 903d d72d 89bd bbeb 183d
00000290: 2dbf 953d a912 76bd 894e 633d d5fe 40bd
000002a0: 81ae 96bd cf0a 6f3d ebe7 9dbd 427b 743c
000002b0: 87bd 973c c52d f3bc 2faf afbd 8f5b ae3d
000002c0: 8a0a 1c3c fecc 683d 8008 b6bc cd42 d6bb
000002d0: e843 783d 8a81 5a3d fe69 8ebd 7d9b 043c
000002e0: 0382 aabd fc97 3d3c 7b22 0d3d c2bb 4a3d
000002f0: 8e4f 933d 5051 013d 66ad e3bb 4196 5c3b
00000300: 90df a63d a453 1bbd 81a6 963d 7c86 22bd
00000310: c8d4 7fbd 364e a2bd 889b 50bb 5f68 f33b
00000320: cc1b 5d3d 3054 273d 5b4b 713d 0edb a7bb
00000330: 4200 e9bc ae76 a93b 33ca 3bbc d0aa 003d
00000340: c610 a2bd b7c9 7cbd 4fab adbd 160a d53c
00000350: a135 573d a662 01bc d8e5 22bd 0659 60bc
00000360: 3843 9e3d 7c74 a6bd fc6b 7d3d e067 3e3c
00000370: 956e 6cbd 5b36 873c dc71 75bc 8aa3 af3d
00000380: e92b 7cbd 023a b1bd a14f 8f3d c21d 303d
00000390: e1d3 e5bb e0e2 17bd 03ae 27bd cc7f 5f3d
000003a0: 44b6 98bd 574d b5bb aa15 fbbc 6439 cd3c
000003b0: 96a0 e6bb a522 8e3d 8be9 a43c 07e6 83bd
000003c0: 5074 693b 8c6c 8e3c 62c9 613d 45b5 91bd
000003d0: c0db a53d f2c9 9cbb c449 debc 7340 6b3d
000003e0: e28e b03b b911 17bd 897a 953d a559 d7bc
000003f0: 5189 a03d fedb 903c 8403 acbc d6ac 5c3c

layer2.bias f4 [128]
-0.045204297 0.08826034 0.070936315 -0.011441004 -0.07505004 0.08282214 0.053146396 -0.083634675
0.05907941 -0.060147755 0.072280735 0.002153883 0.050811037 -0.012371996 0.028979614 -0.039619334
0.058664102 0.06018162 -0.060376856 0.014415476 -0.049850956 0.08406156 0.06396583 -0.07819621
0.059913315 0.08351509 -0.036702454 0.07993277 -0.06365651 0.014859419 0.07597688 -0.06511155
0.059334397 0.046959355 -0.088037685 -0.011701398 0.02862519 0.063734956 0.010310067 0.05259954
0.03055263 0.07376365 -0.08276401 0.006455169 0.008927208 -0.009194609 0.009881107 -0.033360243
0.0745834 0.020946635 -0.079434365 -0.07645724 0.0869545 -0.0038974877 -0.05614744 0.02314179
-0.0034811506 -0.08595383 -0.030287905 0.004006416 -0.03628673 0.032356884 0.024615424 -0.045509238
0.02090372 -0.08222482 -0.045726802 -0.04865154 -0.03014432 0.02793377 -0.07711926 -0.03722394
-0.06147828 0.034026425 -0.043258376 0.01284087 0.03954016 0.06975805 0.050220605 -0.023495128
-0.004377108 -0.060870808 -0.057335414 0.0645078 -0.034944132 -0.019744154 0.0038729687 0.082543366
0.07357634 0.06709329 -0.039783884 0.0557281 -0.025886962 0.017161427 -0.08345625 0.03918066
-0.021445971 0.086801454 0.06517993 0.057116322 -0.042045 0.0024809216 -0.0736152 0.03307912
0.00037430617 0.085647345 0.043493133 -0.031870298 -0.07319263 -0.08210226 -0.05041334 -0.05609409
0.036063507 0.05235552 0.075220354 -0.07485565 0.011363032 0.0042551034 -0.06089442 -0.011580889
0.03839172 -0.018341234 -0.06342395 -0.033913873 -0.06627343 -0.04648047 0.046427526 0.0062298835
00000000: 2428 39bd d6c1 b43d 0f47 913d 0d73 3bbc
00000010: d6b3 99bd a79e a93d 09b0 593d a848 abbd
00000020: 40fd 713d 7e5d 76bd ec07 943d 2928 0d3b
00000030: 3c1f 503d eab3 4abc a866 ed3c e247 22bd
00000040: c549 703d 0181 763d b94d 77bd e32e 6c3c
00000050: 8430 4cbd 7828 ac3d 8400 833d 5625 a0bd
00000060: aa67 753d f609 ab3d 5055 16bd cbb3 a33d
00000070: 585e 82bd ec74 733c c499 9b3d 3459 85bd
00000080: a008 733d 7458 403d 1a4d b4bd 38b7 3fbc
00000090: 607f ea3c 7987 823d 8eeb 283c 9e72 573d
000000a0: 8249 fa3c 6611 973d 2d80 a9bd e285 d33b
000000b0: 6d43 123c fca4 16bc 5ee4 213c c0a4 08bd
000000c0: 2ebf 983d 4798 ab3c 7cae a2bd 9d95 9cbd
000000d0: 3315 b23d fe6c 7fbb dcfa 65bd da93 bd3c
000000e0: 0424 64bb 9008 b0bd 571e f8bc 4148 833b
000000f0: 65a1 14bd a788 043d 49a6 c93c e567 3abd
00000100: 473e ab3c 7d65 a8bd 074c 3bbd d646 47bd
00000110: 39f1 f6bc 5dd5 e43c b4f0 9dbd 2178 18bd
00000120: a6d0 7bbd 4b5f 0b3d b22f 31bd 8362 523c
00000130: ddf4 213d 4fdd 8e3d 1fb4 4d3d db78 c0bc
00000140: d86d 8fbb ab53 79bd 8ad8 6abd aa1c 843d
00000150: 9421 0fbd 7ebe a1bc a2d1 7d3b 7f0c a93d
00000160: 31af 963d 3568 893d 6df4 22bd 2643 643d
00000170: e510 d4bc 1f96 8c3c 1ceb aabd e67b 203d
00000180: 76af afbc f6c4 b13d 0e7d 853d cef2 693d
00000190: 6137 2cbd f596 223b 91c3 96bd f97d 073d
000001a0: 863e c439 e067 af3d db25 323d 6e8a 02bd
000001b0: 05e6 95bd 3b25 a8bd 387e 4ebd ebc2 65bd
000001c0: 54b7 133d be72 563d 210d 9a3d eb4d 99bd
000001d0: 032c 3a3c 656e 8b3b 6d6c 79bd c5bd 3dbc
000001e0: a340 1d3d 5b40 96bc 6ae4 81bd 46e9 0abd
000001f0: 5dba 87bd 4e62 3ebd ca2a 3e3d 0d24 cc3b

layer3.weight f4 [3, 128]
-0.014241915 0.00119225 0.04481786 -0.01697871 -0.035778984 -0.052455693 0.03941767 0.050112214
0.013857431 0.032167003 -0.046678625 -0.06955629 0.016896082 0.0742119 0.019977544 0.035815433
0.0044761216 0.075385794 0.002046356 -0.03774875 -0.008803855 0.081017576 -0.045240678 0.07895773
-0.072024904 -0.02035463 -0.003640866 -0.03413351 0.05087721 0.026296029 -0.04870156 0.08137507
-0.051628243 0.0116093075 0.06771316 -0.04444226 -0.021597225 -0.010559281 -0.045303922 -0.06607037
-0.009525714 -0.08493357 -0.013507549 -0.084685974 0.03124291 0.08685703 -0.02224535 0.021916255
-0.028846525 0.027887968 -0.026266864 0.0782354 -0.05684553 0.032746416 0.021106057 0.084492944
0.08418291 0.052546486 0.061386514 -0.058826085 -0.05357681 0.07066324 -0.03981483 0.006088091
-0.0010786433 0.032222584 -0.056016397 -0.06686309 0.00046557514 -0.0039559454 0.026512695 -0.08470151
-0.048829872 -0.07448131 -0.038651746 -0.08230912 -0.009765383 0.06560941 -0.0016521354 -0.0839731
-0.020762328 0.08575705 -0.08650961 -0.07121628 -0.023207773 0.03308239 0.03279303 0.05238635
0.02899819 -0.02706109 0.0061820573 -0.030534053 -0.08245226 -0.00023736051 -0.061608408 0.079100266
-0.0714341 -0.026478283 -0.03796981 -0.057080984 0.05540336 -0.04942507 0.030985447 -0.08637108
0.07939845 0.04856069 0.034941252 0.06261134 0.073522665 -0.048647948 0.036718164 0.011086433
0.029913345 0.03776464 0.08385903 -0.0011085358 0.06519367 0.038600866 0.046460915 0.06247379
0.060472496 0.002209106 0.07940976 -0.0049032695 -0.062130522 -0.05242086 -0.08441273 -0.0648884
0.06641141 0.047140386 -0.040730607 0.08206035 -0.03134597 0.071480826 -0.07357533 -0.008308019
0.047486495 -0.049127493 0.050838266 0.018713918 0.019379763 0.045652255 0.06484531 0.010620437
-0.030868573 0.06309722 -0.062669486 -0.017523406 0.06603347 0.06303201 -0.03906389 -0.050260633
0.047845975 -0.07408283 0.02435856 0.0014624851 0.00719983 0.010386532 -0.010478096 -0.012749316
-0.025021277 -0.010650698 -0.054997653 -0.08392662 0.055351287 -0.015501431 -0.060308706 0.03473252
-0.023757735 -0.064682566 0.025842223 0.08712541 -0.07854132 -0.057410855 0.012818215 0.040469676
0.026303563 -0.0075364993 -0.004252343 -0.04528743 -0.019827869 0.056278452 -0.030940875 0.08431286
-0.08648669 -0.022334173 0.060578898 -0.06881075 0.026775187 0.037422683 -0.022706414 0.04447049
0.031718705 0.05227656 0.08776853 0.08602545 0.027608925 -0.003175765 0.04956837 0.054134287
0.019298388 0.006153745 -0.025909955 0.05692266 -0.03547123 -0.0362123 0.055157527 0.065440536
0.03524666 0.05002675 -0.026694717 0.0022299686 0.025915949 -0.08667427 0.0034346308 0.07848332
-0.03179963 -0.0569284 0.04928469 -0.010910744 0.005998771 0.08379298 0.0685356 -0.02646547
0.0012922435 -0.087567694 -0.056976236 -0.05199837 -0.06070796 0.06307799 0.054962073 -0.03804953
0.032545492 0.016815845 0.049213756 0.028341794 0.021268269 0.035718642 0.0726648 0.0031822661
0.0015452299 0.026098276 -0.020651082 -0.074218564 0.062126625 0.07606936 0.05841806 -0.06793634
-0.073227264 -0.055143703 0.036473915 0.041996013 0.040201053 -0.029464588 0.030777767 0.01468354
00000000: ec56 69bc 4645 9c3a ef92 373d f016 8bbc
00000010: fc8c 12bd c8db 56bd 6c74 213d 7742 4d3d
00000020: 470a 633c 8cc1 033d 1632 3fbd 8773 8ebd
00000030: a769 8a3c 69fc 973d f2a7 a33c 34b3 123d
00000040: 6eac 923b de63 9a3d 281c 063b 6f9e 1abd
00000050: 0b3e 10bc 8bec a53d 4a4e 39bd 97b4 a13d
00000060: cb81 93bd c1be a6bc 989b 6ebb 94cf 0bbd
00000070: 9f64 503d c56a d73c 497b 47bd f9a7 a63d
00000080: 2378 53bd f734 3e3c 32ad 8a3d 1609 36bd
00000090: aaec b0bc d600 2dbc 9b90 39bd e74f 87bd
000000a0: be11 1cbc a7f1 adbd c44e 5dbc d76f adbd
000000b0: 22f1 ff3c 19e2 b13d e13b b6bc b889 b33c
000000c0: 8c4f ecbc 4f75 e43c 9b2d d7bc e239 a03d
000000d0: dcd6 68bd 1b21 063d 9ce6 ac3c a30a ad3d
000000e0: 1768 ac3d fc3a 573d 6d70 7b3d 9ff3 70bd
000000f0: 5b73 5bbd e4b7 903d e014 23bd 9c7e c73b
00000100: 4361 8dba d4fb 033d 7371 65bd 84ef 88bd
00000110: 7018 f439 e0a0 81bb 2731 d93c fc77 adbd
00000120: d501 48bd a889 98bd 4b51 1ebd af91 a8bd
00000130: fcfe 1fbc 3a5e 863d 778c d8ba 17fa abbd
00000140: c215 aabc 64a1 af3d f32b b1bd d7d9 91bd
00000150: 3a1e bebc 6681 073d fc51 063d 1293 563d
00000160: 9d8d ed3c 38af ddbc db92 ca3b 8d22 fabc
00000170: bbdc a8bd fae3 78b9 1959 7cbd 52ff a13d
00000180: 0b4c 92bd fce8 d8bc 3b86 1bbd c0cd 69bd
00000190: a2ee 623d f171 4abd 31d5 fd3c 52e3 b0bd
000001a0: a89b a23d 93e7 463d 8f1e 0f3d 603a 803d
000001b0: 0d93 963d 1243 47bd c965 163d dfa3 353c
000001c0: d50c f53c 18af 1a3d 48be ab3d 4a4c 91ba
000001d0: 4284 853d f11b 1e3d cd4d 3e3d 84e4 7f3d
000001e0: 02b2 773d a6c6 103b 96a1 a23d 9bab a0bb
000001f0: 937c 7ebd 41b7 56bd 95e0 acbd 36e4 84bd
00000200: b502 883d 4716 413d 23d5 26bd 420f a83d
00000210: a264 00bd 8a64 923d aaae 96bd 5b1e 08bc
00000220: 3381 423d e939 49bd c93b 503d ee4d 993c
00000230: 4fc2 9e3c dcfd 3a3d 9ecd 843d 5701 2e3c
00000240: 17e0 fcbc 1e39 813d dc58 80bd 3f8d 8fbc
00000250: 8e3c 873d ed16 813d 7501 20bd 18de 4dbd
00000260: 24fa 433d bdb8 97bd 9a8b c73c dbb0 bf3a
00000270: 8dec eb3b 462c 2a3c 52ac 2bbc 82e2 50bc
00000280: 6cf9 ccbc 4480 2ebc 3845 61bd b8e1 abbd
00000290: 08b8 623d b7f9 7dbc 4306 77bd b043 0e3d
000002a0: 959f c2bc 4b78 84bd 12b3 d33c cf6e b23d
000002b0: 46da a0bd a527 6bbd 7e03 523c 88c3 253d
000002c0: 927a d73c bdf4 f6bb 3d57 8bbb 507f 39bd
000002d0: 0e6e a2bc 3c84 663d b877 fdbc 39ac ac3d
000002e0: ef1f b1bd 28f6 b6bc 9421 783d a7ec 8cbd
000002f0: a357 db3c 8748 193d cd02 babc b026 363d
00000300: 79eb 013d f21f 563d fdbf b33d 1c2e b03d
00000310: 1d2c e23c 7f20 50bb 3408 4b3d eabb 5d3d
00000320: a717 9e3c 5ba5 c93b 1d41 d4bc bc27 693d
00000330: 484a 11bd 5953 14bd dcec 613d b005 863d
00000340: cd5e 103d d9e8 4c3d e1ae dabc aa24 123b
00000350: af4d d43c 4882 b1bd 8b17 613b ddbb a03d
00000360: 5440 02bd c12d 69bd bede 493d fac2 32bc
00000370: 5791 c43b a79b ab3d 655c 8c3d 1dce d8bc
00000380: 7f60 a93a b156 b3bd ea5f 69bd 3efc 54bd
00000390: e9a8 78bd 092f 813d e91f 613d d3d9 1bbd
000003a0: 6c4e 053d 62c1 893c 5d94 493d 0d2d e83c
000003b0: cb3a ae3c b64d 123d 48d1 943d 918d 503b
000003c0: 5089 ca3a 0dcc d53c 752c a9bc e7ff 97bd
000003d0: 7d78 7e3d 41ca 9b3d c747 6f3d 3522 8bbd
000003e0: 2df8 95bd 5dde 61bd ac65 153d 0304 2c3d
000003f0: dca9 243d b85f f1bc a821 fc3c 3b93 703c

layer3.bias f4 [3]
-0.046782896 -0.05279256 0.0047366945
00000000: 6c9f 3fbd 033d 58bd 4636 9b3b
