target_net_weights.pth (torch, 70895 bytes, 6 tensors)

layer1.weight f4 [128, 1]
000000 58 01 25 be 34 d3 0a 3f ce a5 22 bf b2 0a 75 3f
       -0.16113794 0.5422852 -0.6353425 0.95719445
000010 b0 e4 77 3e 28 df 2e 3e e0 3f ae 3d 60 9d 90 3d
       0.24208331 0.17077315 0.08508277 0.07061267
000020 d0 a8 49 bf 7a ca 38 3f 00 b3 ba bd 36 8b 0d 3f
       -0.7877321 0.72183955 -0.09116173 0.55290544
000030 20 40 1a bd d4 90 b5 3e fe d8 74 bf 20 e5 0f be
       -0.03765881 0.35462058 -0.95643604 -0.14052248
000040 70 88 17 3e 78 bc e4 3e 0e f8 11 3f d4 f8 26 3f
       0.1479814 0.4467504 0.57019126 0.6522343
000050 a0 36 41 bd a0 a6 77 bd f0 e5 5a bf a8 3e 5d 3f
       -0.047171235 -0.06046164 -0.85507107 0.8642373
000060 40 70 66 3d 38 06 51 be 68 39 4e bf 7c d9 9f 3e
       0.056259394 -0.20412529 -0.80556345 0.31220615
000070 f0 0e 8f 3e b0 2d 50 3e 1a 09 5d bf 90 d4 93 bd
       0.27941084 0.20329928 -0.8634201 -0.072182775
000080 6c e9 85 3e a6 48 7c bf 98 92 33 be 60 ad 4d 3d
       0.2615465 -0.9854835 -0.1753639 0.05021417
000090 40 00 d6 be 58 2a e4 be 46 a6 7c bf b0 4a 06 bf
       -0.41797066 -0.44563556 -0.98691213 -0.52457714
0000a0 2c 5e 03 bf b8 3a 12 3e a2 77 03 3f b8 5d af 3e
       -0.5131557 0.14280212 0.5135442 0.3425119
0000b0 08 f5 4f bf 40 c2 a8 bd d0 23 4e 3e 12 ff 37 3f
       -0.81233263 -0.08240175 0.20130849 0.7187358
0000c0 9c 7e 1a 3f 6c 09 72 bf a4 23 e8 be 80 bf 5c 3f
       0.6034944 -0.94545627 -0.45339692 0.86229706
0000d0 dc da e4 be 30 c2 00 3e 32 50 26 3f 84 35 49 3f
       -0.44698226 0.12574077 0.6496612 0.78597283
0000e0 cc e6 b2 be f8 52 01 bf 70 fb f8 be 56 54 33 bf
       -0.3494171 -0.50517225 -0.48629332 -0.7005056
0000f0 02 d4 2b bf 96 12 28 3f 34 85 34 3f 34 50 ef be
       -0.67120373 0.6565336 0.7051575 -0.46740878
000100 b8 fd 54 bf 6c 20 ce 3e 40 ae fd 3c ec 6f 71 3f
       -0.83199644 0.4025911 0.030966878 0.94311404
000110 3c 1f e3 be 88 bb 58 be 7e 22 0e 3f 64 a5 04 bf
       -0.44359767 -0.21165287 0.5552138 -0.51814866
000120 fc 68 ac be 3c 45 54 3f ec 5d 5d bf 62 35 35 bf
       -0.33673847 0.82918143 -0.8647144 -0.7078458
000130 a0 7b b3 3d 00 06 75 3d 7e 6b 70 3f ce 7b 58 bf
       0.08763814 0.059820175 0.9391402 -0.8456391
000140 40 0d e4 3d a4 51 8f 3e ea 74 3a 3f ce 78 3f 3f
       0.1113534 0.27991974 0.72834647 0.7479371
000150 58 6e 8f 3e 7e 28 4d bf 64 3e 38 bf c8 3c 10 bf
       0.28013873 -0.8013991 -0.719702 -0.56342745
000160 44 32 d4 3e 40 e7 8c 3c 88 6b 2c 3e 88 d0 94 be
       0.414446 0.017200112 0.16837895 -0.29065347
000170 e4 19 91 be 60 34 38 3f aa 6b 62 bf 24 d9 59 3f
       -0.28340065 0.7195492 -0.8844553 0.85096955
000180 60 dc da be 7c 77 45 3f 1c 15 97 be 20 01 7e bf
       -0.42746258 0.77135444 -0.29508293 -0.99220467
000190 40 a8 ed 3e d4 0d 4c 3f 30 44 ae bd fc 8f 77 3f
       0.46417427 0.797086 -0.085090995 0.9670408
0001a0 2a 87 22 bf a0 d2 74 3d 00 6c d9 3a d8 cf 05 be
       -0.63487494 0.05977118 0.0016587973 -0.13067567
0001b0 ee 00 7a 3f 34 52 68 bf 18 69 20 be 9c 78 ce be
       0.9765767 -0.9075043 -0.1566509 -0.40326393
0001c0 00 53 49 3e 58 36 3e bf 5c d4 22 bf d0 d7 96 3d
       0.19660568 -0.7430167 -0.63605285 0.07365382
0001d0 28 ee da 3e a8 e4 91 3e 9e f6 12 3f 00 40 a9 bd
       0.42759824 0.28494763 0.5740756 -0.0826416
0001e0 70 9d ae bd 18 54 03 be 9c 7b e9 be ac 2e 70 3f
       -0.085261226 -0.12825048 -0.4560212 0.93821216
0001f0 d0 43 7b 3e 1a 3d 4a 3f 00 95 bc 3d 94 58 74 bf
       0.24537587 0.78999484 0.09208107 -0.9544766

layer1.bias f4 [128]
000000 30 04 e2 be 60 d9 e8 bd 28 f4 7d bf 40 d7 0d bf
       -0.4414382 -0.11369586 -0.9920068 -0.5540657
000010 e6 42 50 bf fe 43 46 3f 60 1a 63 bf 74 ca 33 bf
       -0.8135208 0.774475 -0.8871212 -0.70230794
000020 1e 4b 76 bf 24 d9 3a 3f c2 69 7f bf c8 66 6b 3f
       -0.9620837 0.7298758 -0.9977075 0.91953707
000030 78 e5 66 bf 20 6b c9 bd 20 30 0f 3f 40 3d 81 3c
       -0.9019389 -0.098348856 0.5593281 0.015776277
000040 72 92 3c 3f dc 46 cf 3e 26 a7 7f bf 10 55 ed be
       0.7366096 0.4048375 -0.99864423 -0.4635396
000050 c0 d9 a2 bd fc fb db 3e 8c 1f b6 be 18 c6 c0 3e
       -0.07951689 0.42965686 -0.35570943 0.37651134
000060 1c 1c a8 3e 0a 23 4b bf 00 cc dc 3c e0 87 49 bd
       0.32833946 -0.7935034 0.026952744 -0.049201846
000070 d0 b2 e3 3e 3c 3d 9a 3e 20 1f 84 be 7c 42 79 3f
       0.4447236 0.30124843 -0.25804996 0.9736707
000080 2e 0e 27 3f d4 d5 e3 be 68 e4 ba 3e c0 b2 e1 3c
       0.6525601 -0.44499075 0.36502385 0.027551055
000090 c8 d4 32 bf f0 9a 37 3f f4 69 f2 3e f8 21 ac 3e
       -0.6985593 0.7172079 0.4734646 0.33619666
0000a0 90 69 6e bf 54 b0 82 3e f0 5b e6 bd 90 83 f6 bd
       -0.93129826 0.25525153 -0.112480044 -0.12036812
0000b0 7c 79 50 3f a8 e1 a3 be fc c9 e6 3e a4 bf e4 3e
       0.8143537 -0.320081 0.45075977 0.4467746
0000c0 00 bd 35 3d 1e b7 61 3f ce dc 33 bf c0 27 29 3e
       0.044369698 0.8817004 -0.70258796 0.1651907
0000d0 88 89 1d bf 30 a0 be bd 50 d9 0d 3f 00 35 a7 bd
       -0.6153798 -0.09307897 0.5540972 -0.08164406
0000e0 e8 db 75 be 30 d9 a7 3e 64 c3 74 3f 26 f0 28 bf
       -0.24009669 0.32782888 0.9561064 -0.6599144
0000f0 d0 57 bc bd 8a d7 2d 3f 80 7c 8a be 70 2c 34 be
       -0.091964364 0.6790701 -0.2704811 -0.17595077
000100 40 1a 4f be 00 07 88 be d0 4f 94 bd 96 d0 29 bf
       -0.20224857 -0.2656784 -0.072417855 -0.663339
000110 58 4c 30 3e d0 7e df be 90 39 52 3f 40 d0 93 3e
       0.17216623 -0.43651438 0.82119083 0.2886982
000120 ac 6e 06 3f de 3c 29 bf 00 1a 8c 3e f8 3d 25 be
       0.5251262 -0.661085 0.27363586 -0.1613692
000130 d8 4b 38 be 40 da 02 bd 80 22 70 bc be d2 1b 3f
       -0.17997682 -0.03194642 -0.014656663 0.6086844
000140 7c 32 9c be 68 45 33 3e f8 23 14 bf a4 1f 81 be
       -0.30507267 0.17506945 -0.57867384 -0.25219452
000150 98 11 43 bf 74 07 ad be 0c c8 c9 be e4 a6 0c 3f
       -0.7619872 -0.3379475 -0.39410436 0.54942155
000160 8e c5 37 bf 4c ca 09 bf 50 bf a9 bd 8c ba 28 bf
       -0.7178582 -0.53824306 -0.08288443 -0.6590965
000170 d0 17 ad bd 74 ae d9 3e 80 5c 68 bc a8 62 bf 3e
       -0.084518075 0.4251591 -0.01418221 0.37379956
000180 40 16 fc 3d 76 3f 5c bf 78 78 83 be 5a 48 0f 3f
       0.12308931 -0.86034334 -0.25677848 0.55969775
000190 e0 2b f0 3e 20 a6 2a bd 2e 3d 4d 3f 90 db ab bd
       0.46908474 -0.041662335 0.8017148 -0.083914876
0001a0 20 43 f6 bd ae dd 49 bf c0 55 92 bc e2 3f 76 bf
       -0.12024522 -0.7885388 -0.017863154 -0.9619123
0001b0 60 45 bd bd 00 f7 e0 bc 76 33 35 bf 10 de 61 3e
       -0.09241748 -0.027461529 -0.7078165 0.22057366
0001c0 b0 88 d3 3e 58 ed 1b 3f fa 5c 1e 3f c0 00 da 3e
       0.41315222 0.6090903 0.6186062 0.42578697
0001d0 c0 73 47 bd 62 2f 2c 3f 0c 9c 28 bf fc 36 94 3e
       -0.048694372 0.672598 -0.6586311 0.289482
0001e0 80 f5 6b bf 00 8c e7 3b 10 9b 59 3e 70 4a 32 3f
       -0.9217148 0.00706625 0.21250558 0.6964483
0001f0 52 ea 16 3f 44 bb 38 3f 86 b4 4e 3f b8 fc 0e 3f
       0.58951294 0.72160745 0.80744207 0.5585437

layer2.weight f4 [128, 128]
000000 8b 51 b3 3d 8b 32 9a 3c c7 8f 86 bd e3 4e a0 3b
       0.087557875 0.018822929 -0.06570392 0.0048922165
000010 b5 f3 be 3b fe 3a 8b 3d c7 50 a2 3c 77 12 78 bd
       0.005827392 0.06798361 0.019813908 -0.060564484
000020 76 95 90 bc 5b d2 56 bd 08 19 60 bc ff db c6 bc
       -0.017649394 -0.052446704 -0.013677843 -0.024274824
000030 73 da b4 bd 54 a5 07 3d be e2 af bd b6 ff 5c bd
       -0.088307284 0.033116654 -0.085881695 -0.053954802
000040 51 50 5c bd d3 52 ef bc 44 e4 5c 3d bd 79 94 bd
       -0.053787533 -0.029214298 0.05392863 -0.07249782
000050 60 2d 37 bc d7 bf 32 bc 79 d8 9a 3c d0 b4 28 bd
       -0.011180252 -0.010909996 0.01890205 -0.04118806
000060 f4 d0 30 bc 1a a6 0b bd 48 76 21 3d 85 a8 ae bd
       -0.010792006 -0.034093954 0.039419442 -0.08528236
000070 e2 05 9a bd 1b e3 8a bd 89 13 f4 3c f5 b3 9c bd
       -0.07520653 -0.06781598 0.029794471 -0.076515116
000080 9e 5c 9a 3d ff f8 a4 3d 5d f2 67 bc 3c 0f 61 bd
       0.075371966 0.08055305 -0.014156905 -0.05494617
000090 8d 78 a3 bd 5f 2f 93 3d 98 26 b7 3c e0 83 8f 3c
       -0.079819776 0.0718677 0.02235727 0.017518938
0000a0 89 db a9 3d 16 90 84 3c 70 3e e1 ba 04 54 06 3c
       0.08293826 0.016181987 -0.0017184746 0.008198742
0000b0 a5 68 36 3d 71 85 7f 3d 0b 35 59 3d e9 1c a6 3d
       0.04453339 0.06238312 0.0530291 0.08110983
0000c0 39 3d bf 3c 5d 59 45 3c c9 f6 30 3d 01 68 58 bc
       0.023344623 0.012045232 0.043204103 -0.01320839
0000d0 32 b5 86 3d 5b a4 9e 3d 06 ce 54 3c bf e1 28 3d
       0.06577529 0.07746192 0.012988573 0.041230913
0000e0 49 ff 7d bc 6f 8a 21 b9 81 52 cb 3c ce f8 a5 3d
       -0.015502759 -0.00015405727 0.024819614 0.08104096
0000f0 b6 7e e2 3c 93 a5 24 3c 9f 04 5c bd cf 68 84 3d
       0.027648311 0.010049242 -0.053715345 0.06465303
000100 7e fa 57 3c bb a2 2b 3c 41 a7 19 3d 54 bc 88 3c
       0.013182281 0.01047581 0.03751302 0.016691364
000110 f7 29 eb 3c 9c 64 a5 bd 0f ff 69 bd 53 c9 14 3c
       0.028706534 -0.0807583 -0.05712801 0.009081203
000120 1b 7e 9c 3c 43 23 64 bc fa 1d a5 bd 2c b7 ab 3d
       0.0191031 -0.013924423 -0.08062358 0.08384547
000130 0c 88 b4 bd 66 30 a0 3d fd f2 9a bd 44 66 d2 bb
       -0.088150114 0.07821731 -0.075658776 -0.0064208824
000140 bb 2c 81 bd 22 1a 65 bd d4 84 b3 3d 94 9c 5d bd
       -0.0630736 -0.055933125 0.08765569 -0.054104403
000150 13 d7 b1 3d cc ce cc 3c 0d 76 81 3d 8f 8d 1b 3d
       0.086836 0.025000952 0.063213445 0.037976798
000160 ad fd 97 bd 84 ca 79 3d 60 b9 ab 3d c9 53 90 bc
       -0.07421432 0.06098415 0.08384967 -0.017618077
000170 a8 96 9d 3d ed 42 4f 3d 5b 39 fa 3c 06 81 af bd
       0.07694751 0.050600935 0.030544927 -0.08569531
000180 fc c0 e1 3b 72 b9 ac 3d d9 f0 54 bd a6 56 49 bd
       0.0068894606 0.084338084 -0.051987503 -0.0491549
000190 e3 46 b1 3d 5c f8 a2 3c 61 dc b8 3c 99 25 86 3d
       0.08656099 0.019893818 0.022566022 0.0655014
0001a0 a4 9e 08 bd 28 ba 9d bd 65 9c e9 bc 86 89 b1 bd
       -0.033354416 -0.07701522 -0.028516958 -0.08668809
0001b0 c4 d2 aa bd 6d c6 88 3c c5 32 af bd 3d fd 23 3d
       -0.083409816 0.01669618 -0.085546054 0.04003643
0001c0 ca a3 25 3d 00 de 93 bd 10 65 06 bd 5a e4 82 bd
       0.040439405 -0.072200775 -0.032811224 -0.06391211
0001d0 4d 64 b0 3c 97 55 a8 3d 5b b9 8e 3b 54 1b 75 bc
       0.021532202 0.0821945 0.004355592 -0.014960129
0001e0 42 54 ab 3d 90 21 a9 3b b0 19 a2 3d 96 b5 fa 3c
       0.0836568 0.0051614717 0.07915056 0.030604165
0001f0 9f 9d fc 3c 29 ba 32 bd e8 d9 40 3d 35 24 a3 3d
       0.030836878 -0.043634567 0.04708281 0.0796589
000200 6a 08 91 3d 1c d3 ba 3c 62 8c 8d 3d 2b 24 e0 bc
       0.07081683 0.022805743 0.069115415 -0.027360996
000210 2d 5c 9d bd 48 9a a4 3d db 0e 0e bd 72 26 c2 3c
       -0.07683597 0.08037239 -0.034682136 0.023699973
000220 70 0d 28 bb fd f2 29 bd 6d ba 82 3d 4e 45 77 bc
       -0.0025642775 -0.041491497 0.06383214 -0.015092207
000230 60 bc 94 bb 7b 2b 56 3d 64 76 0c 3d e2 43 d2 3c
       -0.0045390576 0.05228756 0.034292594 0.025667135
000240 93 0c 67 3d 3f 0d 9a bd 77 c2 c4 3c 89 f2 64 3c
       0.056408476 -0.07522058 0.02401851 0.0139738405
000250 8f 70 64 bc 18 aa aa 3c b0 0d b7 3c c5 c8 e8 bc
       -0.013942852 0.02083306 0.022345394 -0.028416047
000260 b4 7b c5 bc b6 83 97 bd 61 4b 66 bb 86 7d a4 3d
       -0.024106838 -0.07398169 -0.0035140144 0.08031754
000270 e0 27 22 3d 3d 40 98 3d 3c 06 45 bc f9 15 e6 bc
       0.03958881 0.074341275 -0.012025412 -0.02808665
000280 58 cf a8 bd af 25 9d 3d ae 22 48 bd e2 57 9e bd
       -0.08242673 0.07673203 -0.048861198 -0.07731606
000290 9a de 98 3c 21 2f 1a 3d d1 f7 9c 3c aa 87 b1 3d
       0.018660832 0.037642602 0.019161137 0.08668454
0002a0 84 d2 88 bd c1 a1 b4 bc dc 39 95 3d 89 cd b4 bd
       -0.06680778 -0.022049787 0.072864264 -0.08828265
0002b0 d2 b9 5c 3d fc fa 73 bd 46 4c c7 bc a7 7b af bd
       0.05388815 -0.05956553 -0.024328362 -0.08568507
0002c0 60 5f ae bd b1 97 ba bc a3 52 87 bd 75 1d 39 bc
       -0.08514285 -0.02277741 -0.066075586 -0.011298527
0002d0 23 63 b2 bd d1 e4 7e 3d ac f9 1e bd 51 61 37 3d
       -0.08710315 0.062229935 -0.038812324 0.044770543
0002e0 da b4 01 bb ae cc 14 3d 4a d6 b0 bd a3 54 30 bd
       -0.0019791634 0.03632801 -0.086346224 -0.043049466
0002f0 e3 c0 96 bd 19 cd 84 3d 56 70 9e bd 5b 4e 72 3d
       -0.07361009 0.06484432 -0.0773627 0.059156757
000300 1e 1a b1 bd 0e 9c 0a 3d 61 1f a9 bd 07 a6 d4 bc
       -0.086475596 0.03384023 -0.08257938 -0.025958074
000310 5e a2 7b 3d e6 36 55 bd e3 6e 1b bc dd 80 58 3d
       0.061434142 -0.05205431 -0.009486887 0.05285727
000320 74 15 a7 3d 2a bf 78 bd d8 b3 a8 3d c4 72 08 bc
       0.08158389 -0.060729183 0.082374275 -0.0083281435
000330 60 1f f9 38 ca c0 28 3d 39 85 42 3d 67 7d a8 bc
       0.00011879089 0.041199483 0.047490332 -0.020567609
000340 71 fb 5b 3c f7 72 8c b9 6d 4a e3 bc 04 17 0d b9
       0.0134266475 -0.00026788536 -0.02774545 -0.00013455382
000350 48 d7 37 bd 05 22 4c 3a 08 a8 62 3d cd a6 7a 3d
       -0.044883043 0.0007787052 0.05533603 0.06119423
000360 ae 85 6f bd bc cb 9a 3d e0 4e a6 3d 5c 8d b8 bc
       -0.058477096 0.075583905 0.08120513 -0.022528343
000370 8d af a7 3d 8c c0 83 bd 83 4d aa bd 5f c9 a3 bd
       0.081877805 -0.0643321 -0.083155654 -0.07997393
000380 7a 9e 95 3d 85 d5 8c 3d 98 1c 93 bd 75 b4 84 3c
       0.07305618 0.06876663 -0.07183188 0.01619933
000390 bd 06 03 3d de a6 22 bd 21 3e 88 bb 14 9f 76 3d
       0.031988848 -0.03970992 -0.004157797 0.060210302
0003a0 4c a5 c8 ba 1a 10 1f 3d f1 ad 8e bd 7d 4f af bd
       -0.0015308051 0.038833715 -0.069667704 -0.08560083
0003b0 97 21 54 bd 7b 1d 9e bd cd 23 b0 3d 96 65 94 3d
       -0.051789846 -0.07720467 0.086005785 0.072459385
0003c0 56 0c 23 3d 34 18 85 bc 12 dd 76 3d 72 5a af bd
       0.039806686 -0.016246893 0.060269423 -0.08562173
0003d0 6d ab 29 bd 48 a7 98 bd fc 52 8d bc d3 02 cf b9
       -0.04142325 -0.07453781 -0.017251484 -0.0003948422
0003e0 d2 d7 0b 3d fb 16 df bb 76 d4 db 3c 92 dd 8a bc
       0.03414137 -0.0068081594 0.026834708 -0.016951356
0003f0 fd 3b b4 bd 16 9a b2 3d 61 16 cb 3c 82 cd 85 3d
       -0.08800504 0.08720796 0.024790945 0.06533338

layer2.bias f4 [128]
000000 8e 3b d6 bc 2e 33 ae bd 0a 30 74 3c 44 44 3a 3d
       -0.026151445 -0.085058555 0.0149040315 0.04547526
000010 f2 7b 9b 3c d0 97 b2 bd ad a0 16 bd b4 c5 97 3d
       0.01898 -0.08720362 -0.036774326 0.07410756
000020 e7 be 0e 3d 83 a1 41 3d da c7 c5 bb 59 22 9e 3c
       0.034850027 0.04727317 -0.006035787 0.019303488
000030 ec b6 3d bb d7 6b 73 bd 0d c3 8d 3d d2 21 26 3c
       -0.0028948141 -0.059429016 0.069219686 0.010139899
000040 f0 20 83 3d dc 68 9e 3d 25 75 44 3c 88 15 53 3d
       0.06402767 0.07734844 0.01199082 0.051534206
000050 fa 4f 7b bd 66 66 8d bd 8f 5d 65 3d 08 a9 1e 3d
       -0.06135557 -0.069042966 0.055997428 0.03873542
000060 05 68 7b bd 3b c3 80 bd 3a 87 ed 3c 3d 9c fa 3b
       -0.061378498 -0.06287237 0.028995145 0.0076480196
000070 f0 4c 34 bd b1 e2 9c bc 13 5d 8f bd 57 71 34 bc
       -0.044018686 -0.019151064 -0.070001744 -0.01101335
000080 66 9d 11 bd fc 5d 77 bd b7 c7 0f bd 66 4a fd ba
       -0.035550497 -0.060392365 -0.035102572 -0.0019324541
000090 3f a5 ac bc 6a fe a3 bd 66 45 9d 3c ed de 9e bb
       -0.02107489 -0.0800751 0.01919813 -0.004848352
0000a0 7d bd 3a bd f7 86 cb bc 35 85 6f 3d ae f1 a0 3d
       -0.045590866 -0.02484463 0.058476645 0.07858597
0000b0 30 d4 8a bd 89 67 2f bc 3a d7 28 bc 70 c4 4f bc
       -0.06778753 -0.010705837 -0.01030522 -0.012681112
0000c0 b0 da 43 3c 9e 6e 0b bc 88 de b2 bd 41 53 97 bd
       0.011953995 -0.00851026 -0.08733851 -0.07388926
0000d0 28 1f 33 bd 10 3e 6d bd ab 91 08 bd 31 33 82 bd
       -0.043730885 -0.057920516 -0.033342045 -0.0635742
0000e0 5b 30 38 3b 37 ba 02 bd 4e 88 40 3d 46 b2 64 bc
       0.0028104994 -0.03191587 0.04700499 -0.013958519
0000f0 cc 59 5c 3d f5 00 6a bd 22 d7 a2 bd 34 53 96 3c
       0.053796574 -0.05712982 -0.079511896 0.018350221
000100 d2 54 a8 3d 2b e6 9b 3a 12 36 85 3d 11 68 00 3d
       0.08219303 0.0011894157 0.06504454 0.031349245
000110 d9 22 0f bc 7b 91 a3 3d bb a3 69 3d 32 13 84 bc
       -0.008736336 0.079867326 0.05704091 -0.016122434
000120 b5 90 4b bb eb 10 78 bd 13 6b 93 bd 7b ff a1 bd
       -0.0031061594 -0.06056301 -0.07198157 -0.07910057
000130 f7 e2 9c 3d 1b 3d 12 bc a4 8d 2d bb 11 89 87 3c
       0.076604776 -0.0089257015 -0.002648213 0.01654485
000140 1b 63 11 3d 3c c2 61 bd a9 68 01 bc 47 f6 89 bd
       0.035494905 -0.055116877 -0.007898488 -0.06736427
000150 1a 7d 0d bc 5c b6 99 3d d1 bf 9d 3c 14 75 64 3d
       -0.008635784 0.075054854 0.019256504 0.055775717
000160 1f e4 81 bd 3e 0d bc 3a 8b dd 31 bd 3d 0b ae 3d
       -0.06342339 0.0014347208 -0.04342417 0.08498237
000170 e8 a4 a8 3d 67 d8 23 3d 7b 78 2b bd 02 b3 9f bd
       0.08234578 0.0400013 -0.041862946 -0.07797815
000180 c4 f5 87 3d 8d 4e e8 bc 90 25 1c bd fc ab a9 bd
       0.06638673 -0.028357768 -0.03812176 -0.082847565
000190 b7 20 a3 3d 09 69 82 3d 0e dc 92 bd f6 63 21 bd
       0.07965224 0.0636769 -0.07170878 -0.03940197
0001a0 f4 72 8c bd f9 b3 92 3d ab 9b 0c bd de f1 7e bd
       -0.06857863 0.07163233 -0.034328144 -0.06224238
0001b0 44 5a b4 3d 21 46 1d 3d ee 4e a4 bd d1 20 c5 3c
       0.08806279 0.03839696 -0.08022867 0.0240635
0001c0 fb fe 13 3d 89 40 20 3d 30 0c 26 bd 1c 0b 0c 3d
       0.03613184 0.039124046 -0.040538967 0.034190282
0001d0 55 6c 91 bd 63 d2 5b bd c9 32 de bc a0 2f d1 3c
       -0.07100741 -0.053667437 -0.027123826 0.025535405
0001e0 bc 11 fa 3c d7 5a 09 3d 2e ee 8d 3d 85 88 ac bd
       0.030526035 0.033533897 0.06930195 -0.084244765
0001f0 26 fe 35 3d 9b 88 a9 3d 54 6c 33 3d 7b 91 1b bd
       0.044431828 0.082780086 0.04380448 -0.037980538

layer3.weight f4 [3, 128]
000000 0a 75 99 3c ef 1d 7e bd e5 f3 8c bd 15 f3 80 bd
       0.018732566 -0.062040266 -0.06882457 -0.06296364
000010 61 3b 8a 3c 01 87 13 3d c8 b9 78 bd b2 b4 ac 3d
       0.016874017 0.03601742 -0.06072405 0.084329024
000020 96 22 b2 bd fa 51 ad 3b 47 b2 9b 3d 20 28 2f 3d
       -0.08698003 0.0052893134 0.07602363 0.042762876
000030 e0 54 f0 bc a5 18 77 3d 19 ee 4c bd 72 a1 0e 3d
       -0.029337347 0.060326237 -0.050031755 0.034821935
000040 8b fa 16 3c 83 e6 cf 3a 23 29 aa 3d 22 12 52 bd
       0.009215008 0.0015861545 0.083086275 -0.051286824
000050 92 45 03 3d 97 6c 2e 3d f3 22 9f 3d 82 76 37 3d
       0.03204877 0.042584028 0.07770338 0.044790752
000060 38 d3 82 3d d7 59 19 3d 2a 00 9f 3d 5e d9 37 bd
       0.06387943 0.037439194 0.07763703 -0.044885032
000070 eb 9b 76 3d d2 db 9d bd c2 6e f3 bc df 01 6f bd
       0.06020729 -0.07707943 -0.0297159 -0.058351394
000080 1f bf d2 bc 60 4d 2a bb 69 8c 62 3d 71 16 fe 3c
       -0.0257259 -0.002598606 0.055309687 0.03101656
000090 96 9c 80 bd 92 4e 43 bd c1 61 86 bd a4 dc 99 3d
       -0.062798664 -0.047682352 -0.06561614 0.07512787
0000a0 2c 45 18 bd 79 f9 86 3d 9f 37 aa 3d db 4d 96 3c
       -0.037175342 0.06590552 0.0831139 0.018347671
0000b0 cc 10 93 bc ba b8 a1 3d 19 fb 3e bd ed 3a 9d bd
       -0.017952345 0.07896562 -0.046626184 -0.07677255
0000c0 db 11 a8 bd 60 b0 93 bd 53 8a a9 bc 18 5b 96 bc
       -0.08206531 -0.07211375 -0.020695841 -0.018353984
0000d0 4f fc b4 3c 94 c9 0b bd ef 97 b2 bb 0d bc eb bc
       0.022092966 -0.034127787 -0.005450241 -0.028776193
0000e0 54 3c 2a 3d d6 92 d2 3c c9 8f 93 bc 20 44 9d 3d
       0.04156144 0.025704782 -0.018012898 0.076790094
0000f0 17 bb a1 3d 2b 54 0f bd 7d bf ba b9 0d f7 30 3d
       0.07897013 -0.03499238 -0.00035619354 0.043204356
000100 8a d9 fe 3c 0b da b7 bc e2 85 68 bc 85 a4 96 bd
       0.03110959 -0.022442838 -0.014192076 -0.07355598
000110 dc b6 4d 3d 79 d1 6d 3d 34 9c a3 bd 87 1f 3e bc
       0.050223216 0.058061097 -0.07988778 -0.011604196
000120 ad 06 6f bd 49 e8 0f bd fe 82 13 bd 8a f9 f5 3b
       -0.058355976 -0.035133634 -0.036013596 0.007506554
000130 11 92 5c bd 95 39 16 3d 15 ac 9f 3d e9 8f 69 3d
       -0.053850237 0.03667601 0.07796494 0.05702201
000140 02 fe 02 3d 5d f3 fb bc 23 22 81 3d bc 45 f9 3b
       0.031980522 -0.030755693 0.06305339 0.00760719
000150 08 ce 5f ba bf b6 45 3c 26 4d 51 bc 4e ee 55 bc
       -0.0008537476 0.012067496 -0.012774741 -0.013057305
000160 6d 2a 9d bd 29 2f cd 3b 7f 49 4a 3b 2c 1a ac bd
       -0.07674108 0.0062617254 0.003086656 -0.084034294
000170 3f c3 a9 3c 54 fc 80 3d 3a 95 4d bd 94 f3 17 3d
       0.020722983 0.06298128 -0.05019114 0.03709753
000180 12 5e c1 3c eb 36 27 bd f3 b4 a2 3d cf 07 1a 3b
       0.023604427 -0.04082386 0.079446696 0.002350319
000190 ff 96 66 3d 64 b2 f4 bc 27 de 5b 3d eb 46 95 3d
       0.056296345 -0.02987022 0.053678658 0.07288917
0001a0 ec 8c 4a 3d a4 29 0f bd 4c d4 70 bd 18 48 41 3d
       0.0494508 -0.03495182 -0.058796212 0.047187895
0001b0 77 dc 11 bd 2f a2 41 3d 3e 22 d0 bc d9 8d 79 3d
       -0.035610642 0.04727381 -0.025406953 0.060926292
0001c0 c6 e2 cc 3c 88 5f e6 3c a1 24 00 bb e6 cf aa 3d
       0.025010478 0.028121725 -0.0019553083 0.08340435
0001d0 19 b0 a2 bd 18 e9 80 bd b8 ce 81 bd 9e ee b7 3c
       -0.07943744 -0.06294459 -0.063382566 0.022452649
0001e0 a8 24 7d bd 04 3a 2f 3c 6a ee 7b bc d8 c0 30 3d
       -0.061802536 0.010694984 -0.015376667 0.04315266
0001f0 15 f4 1e 3d 61 a2 85 3c ed d3 15 3d 7a 66 02 bd
       0.038806994 0.01631278 0.03657906 -0.03183601
000200 71 b7 30 bd 7b 03 d0 bc 9e 42 0e 3d 9e af aa 3c
       -0.043143693 -0.025392285 0.0347315 0.020835694
000210 56 69 85 bd c0 56 a9 3d 0f 75 c8 3c 61 7e 16 3d
       -0.06514232 0.082684994 0.02446988 0.036741618
000220 6e 8a 67 3d 30 d1 9c bd 28 f0 b0 3c 2d f2 dc ba
       0.0565285 -0.07657087 0.02159889 -0.0016856842
000230 43 b2 8c bd be b6 07 3d 6b f1 d1 3a 2d ce 33 3d
       -0.06869938 0.03313326 0.0016017383 0.043897796
000240 78 28 5d bd 5f e8 ec bb 6d c3 07 3d 3a fe 0d 3d
       -0.053993672 -0.007229849 0.033145357 0.034666277
000250 22 3c 8f bd ab 9c 37 3d 62 4e 75 3d 68 27 64 3d
       -0.06993891 0.044827145 0.059889205 0.055701643
000260 27 99 46 3c 97 96 40 bd dd d7 90 bc 64 00 2c bd
       0.012121475 -0.047018614 -0.017681057 -0.04199256
000270 9a 75 00 bd 34 5c 1f bd f7 eb 41 bd 59 be b4 3c
       -0.031362154 -0.03890629 -0.047344174 0.022063421
000280 07 de 21 bd 99 b8 5f bd a9 93 55 3d a0 b0 bd 3c
       -0.039518382 -0.054619405 0.052142773 0.02315551
000290 61 5f 9a 3d 16 9f 22 3c 46 2d 59 bd 52 e7 af 3c
       0.07537723 0.009925624 -0.05302169 0.021472607
0002a0 9c 0f 96 bc 51 1c 1a bc fb e0 91 3d 03 c9 9d bd
       -0.01831799 -0.009406165 0.0712299 -0.077043556
0002b0 7c c3 86 bd fd ef 83 bd a9 90 a6 bd 73 31 03 bc
       -0.065802544 -0.064422585 -0.081330605 -0.008007395
0002c0 79 b1 9d bd a3 f2 5f bd b0 13 b9 3a a0 25 36 3d
       -0.07699866 -0.054674756 0.0014120247 0.044469476
0002d0 4c d5 9c 3d 77 fb b3 3d eb 67 b6 b9 eb 49 94 3d
       0.07657871 0.087881975 -0.0003479117 0.07240661
0002e0 e3 46 0f 3d 52 d9 29 3c f9 bb b1 3d f6 61 8e bd
       0.034979712 0.010366755 0.08678431 -0.06952278
0002f0 72 e5 22 3c ea 8a dd 3b 7a 99 72 3d f3 3f db bc
       0.009942399 0.0067609446 0.059228398 -0.026763892
000300 42 85 24 3d eb 47 f1 3c 78 77 37 3d b6 74 a5 3d
       0.040166147 0.029453238 0.04479167 0.080789015
000310 18 d9 76 bd 4a 08 ac bc dd eb 63 3d df ce 4a 3d
       -0.06026563 -0.021000046 0.05564486 0.049513694
000320 22 e9 44 bd b0 0c 88 3d fc eb 8b bd 16 c2 6a bd
       -0.048073895 0.06643045 -0.0683212 -0.057314
000330 49 e1 93 bd 7e 9d b4 bd b1 17 ef bb d8 e8 7b bc
       -0.07220704 -0.08819102 -0.0072965254 -0.0153753385
000340 92 79 aa 3a 3e 81 01 bd a1 f7 b3 bc de 17 67 bd
       0.0013006201 -0.031617396 -0.021968665 -0.056419246
000350 b0 2f fc 3c 53 1f f6 bc e5 fd b2 bd 8a 22 6b 3d
       0.030784458 -0.030044233 -0.08739833 0.057405986
000360 1b b4 aa bd bd 0b 8d bd 66 fa 3c bd a0 a7 a3 bd
       -0.08335134 -0.068870045 -0.046137236 -0.07990956
000370 e8 11 14 bd 3c d8 36 3d 19 12 91 3d 8a 43 a2 3d
       -0.03614989 0.04463981 0.0708353 0.07923038
000380 c6 c4 5b 3d 3d fe 8a bd 34 27 da bc cd 78 68 3c
       0.053654455 -0.06786773 -0.026630022 0.014188957
000390 83 a8 93 3a 25 28 3a 3d 83 74 af bd 8c 5c 97 bd
       0.001126543 0.04544844 -0.08567145 -0.07390699
0003a0 b7 1c 59 bb 38 61 45 bd 35 c7 b0 bc ef 0b 5f bb
       -0.0033128688 -0.04818842 -0.021579364 -0.0034034213
0003b0 45 a0 33 bd d7 96 b3 3d 07 b4 91 3d 2d 85 42 bd
       -0.043854017 0.08769005 0.071144156 -0.047490288
0003c0 fa e8 05 3c 40 b3 b2 bd c6 34 3e 3d c6 73 49 3c
       0.008173222 -0.087255955 0.046437047 0.012295669
0003d0 b9 b5 84 3d 5d 8f 97 3d f2 7f 71 3d 62 88 a0 3c
       0.06479973 0.07400391 0.05895991 0.019596282
0003e0 83 64 98 3d b4 5d 3b bb af 4b ca 3c d3 5b 9e 3d
       0.07441046 -0.0028589787 0.024694292 0.07732358
0003f0 cb 96 98 3d ca cd 2f 3d 4f 46 80 3d fa 74 4b 3d
       0.074506365 0.042920865 0.0626341 0.049672104

layer3.bias f4 [3]
000000 3d 2e 95 bd a9 c2 12 bd 05 6d 54 3c
       -0.0728421 -0.035830174 0.012965445
