target_net_weights.pth (torch, 70895 bytes, 6 tensors)

layer1.weight f4 [128, 1]
0.46652472 -0.03535664 -0.16035366 -0.99535847 -0.5313717 -0.7113415 0.8871846 -0.8361212
0.6339103 0.44269264 -0.30778694 -0.25607765 0.24213505 0.41958022 0.7603575 -0.8464047
0.00059604645 0.27549028 -0.27419376 -0.66067946 -0.36712337 0.6451163 -0.28385496 -0.42281353
-0.95667315 0.55922055 0.12567258 -0.4379989 0.36670995 0.4813485 -0.3377235 0.6126666
-0.5583961 -0.11063266 0.42865872 0.51857674 -0.17756379 0.5338534 0.8683721 -0.9174067
0.74660647 -0.12875068 0.8531344 0.5823209 0.7864406 0.27069998 -0.28942573 -0.030330777
-0.97409713 0.26307797 0.30622542 -0.01457417 -0.044712782 0.68841565 0.067049384 -0.5482012
0.053257942 0.8309127 -0.13689697 -0.87607145 0.72971535 -0.35382974 0.08293307 -0.10858822
-0.002028346 -0.7226722 -0.84314024 -0.03405142 0.7691953 0.9204453 0.34836233 0.009549737
0.61962163 0.13276935 -0.72771096 0.005093336 0.93181074 0.33314157 -0.23057663 -0.1832583
-0.64591205 0.12765265 0.14160573 0.39615262 -0.2766515 -0.6171919 -0.07103312 -0.14708793
0.5397024 -0.9802847 -0.65929794 -0.55592763 -0.8878108 -0.5603664 0.67740977 -0.42234027
0.982679 -0.24653423 -0.37423086 0.51057565 0.45587277 0.17935419 0.3375541 -0.13951421
0.7597765 0.23237634 0.21834612 0.65370095 -0.4768808 0.6933888 0.58748794 0.35657096
0.7046453 -0.40445352 0.99888027 -0.9829495 -0.61374056 0.42168415 0.13306212 -0.5579742
0.6449765 0.36354327 0.12808907 0.5171236 -0.52501214 0.81936264 0.17864895 -0.25104296
00000000: 54dc ee3e 20d2 10bd c033 24be d0cf 7ebf
00000010: fa07 08bf 7a1a 36bf 881e 633f 0a0c 56bf
00000020: f247 223f 9ca8 e23e 4096 9dbe 9c1c 83be
00000030: 40f2 773e 38d3 d63e caa6 423f faad 58bf
00000040: 0040 1c3a 100d 8d3e 2063 8cbe 4a22 29bf
00000050: 98f7 bbbe 5826 253f 7055 91be 047b d8be
00000060: 88e8 74bf 1429 0f3f 50b0 003e 6441 e0be
00000070: 68c1 bb3e 5073 f63e 18ea acbe b8d7 1c3f
00000080: 0cf3 0ebf 6093 e2bd 2879 db3e 72c1 043f
00000090: 48d3 35be 9eaa 083f a24d 5e3f 2adb 6abf
000000a0: 9a21 3f3f 38d7 03be 0467 5a3f fc12 153f
000000b0: 2c54 493f 3099 8a3e 9c2f 94be 4078 f8bc
000000c0: 6e5e 79bf 28b2 863e 94c9 9c3e 80c8 6ebc
000000d0: c024 37bd 023c 303f 3051 893d ea56 0cbf
000000e0: 0025 5a3d b2b6 543f b82e 0cbe 3846 60bf
000000f0: a0ce 3a3f 2c29 b5be d0d8 a93d 8063 debd
00000100: 00ee 04bb 0c01 39bf 0ad8 57bf 8079 0bbd
00000110: fce9 443f 4ea2 6b3f 8c5c b23e 8076 1c3c
00000120: 869f 1e3f b0f4 073e 444b 3abf 00e6 a63b
00000130: 268b 6e3f 8891 aa3e 481c 6cbe 10a8 3bbe
00000140: 7e5a 25bf 60b7 023e 1801 113e 84d4 ca3e
00000150: 44a5 8dbe 4a00 1ebf d079 91bd 389e 16be
00000160: f029 0a3f f0f3 7abf c0c7 28bf 4651 0ebf
00000170: 9247 63bf 2c74 0fbf ba6a 2d3f fc3c d8be
00000180: da90 7b3f 7873 7cbe 309b bfbe 16b5 023f
00000190: 2868 e93e a0a8 373e e4d3 ac3e d0dc 0ebe
000001a0: b680 423f 10f4 6d3e 2096 5f3e f258 273f
000001b0: b829 f4be ee81 313f 9c65 163f 7890 b63e
000001c0: a263 343f 8814 cfbe 9eb6 7f3f 94a2 7bbf
000001d0: 1a1e 1dbf fce6 d73e 7041 083e 66d7 0ebf
000001e0: 2e1d 253f 5822 ba3e c829 033e 3662 043f
000001f0: 3267 06bf c0c1 513f c0ef 363e b488 80be

layer1.bias f4 [128]
-0.086006284 0.14446986 0.39311266 0.65376925 0.35967588 -0.5884764 -0.32030737 -0.019176602
0.30669987 -0.098912835 0.1203773 -0.9556303 -0.5655315 -0.8501401 0.19415736 0.25526845
-0.48911 -0.4134277 0.2035371 -0.22426009 -0.56557405 0.9871868 0.29208362 0.2211672
-0.9112619 -0.15921533 0.56360114 0.8958287 -0.009284973 -0.032672524 0.8426539 -0.4307804
-0.9113054 0.9704095 -0.0016776323 -0.26961052 0.64074755 -0.30571008 0.3800199 0.79288423
0.70830524 -0.6586385 0.124776125 -0.9144038 -0.43749416 0.24839091 0.98259366 0.91562676
-0.09273076 0.27401114 -0.03627348 -0.2697233 -0.32901037 0.29058337 -0.6272595 0.90585303
-0.62222314 0.16813958 0.37490964 0.15156591 0.82720935 0.60716176 0.2864728 -0.9955075
0.59790397 -0.43610895 0.84907913 0.013513446 0.7922189 -0.18262482 -0.22148085 0.5203451
-0.24305058 0.18721604 -0.9436511 -0.59802556 -0.17904353 -0.83216953 -0.21639287 0.8898145
0.009178162 0.05744481 -0.16424406 0.5404749 -0.6825316 -0.62946224 -0.02802229 -0.6714401
0.48201823 -0.33841372 0.89701366 0.97269535 -0.90254176 0.037205935 -0.36166573 0.5232928
0.22042024 -0.6328821 0.3950976 -0.12542582 -0.7519293 0.83940685 -0.7981552 -0.43038905
0.81931126 -0.8158628 -0.18981779 0.24331868 0.8156285 -0.25841045 -0.6453308 0.08070445
-0.056259036 -0.86318576 0.058218718 0.73909914 0.67644167 0.24782956 0.9320735 -0.8596252
0.44609988 0.84695387 0.85847974 -0.90066576 0.29376888 -0.4226247 -0.34383976 -0.840773
00000000: 1024 b0bd e8ef 133e 1046 c93e 6c5d 273f
00000010: 7027 b83e 64a6 16bf 54ff a3be 4018 9dbc
00000020: c407 9d3e d092 cabd 6088 f63d 30a4 74bf
00000030: acc6 10bf c8a2 59bf 30d1 463e 8cb2 823e
00000040: a06c fabe ccac d3be 086c 503e 70a4 65be
00000050: 76c9 10bf 46b8 7c3f fc8b 953e a879 623e
00000060: 7648 69bf 5809 23be 2a48 103f 0855 653f
00000070: 0020 18bc a0d3 05bd 2ab8 573f 408f dcbe
00000080: 504b 69bf c26c 783f 00e4 dbba 640a 8abe
00000090: 0808 243f 0886 9cbe f891 c23e 76fa 4a3f
000000a0: 7e53 353f 889c 28bf a08a ff3d 5e16 6abf
000000b0: 3cff dfbe 305a 7e3e 428b 7b3f 8466 6a3f
000000c0: a0e9 bdbd 304b 8c3e 8093 14bd 2c19 8abe
000000d0: 0c74 a8be 58c7 943e 1494 20bf fce5 673f
000000e0: 044a 1fbf c82c 2c3e 28f4 bf3e 1834 1b3e
000000f0: fec3 533f f46e 1b3f 90ac 923e 94d9 7ebf
00000100: 3c10 193f ac49 dfbe 405d 593f 8067 5d3c
00000110: dcce 4a3f 0002 3bbe e0cb 62be 5635 053f
00000120: 40e2 78be 90b5 3f3e 1e93 71bf 3418 19bf
00000130: 3057 37be 1009 55bf 1896 5dbe e2ca 633f
00000140: 0060 163c 404b 6b3d 982f 28be 905c 0a3f
00000150: 64ba 2ebf 7024 21bf 008f e5bc 80e3 2bbf
00000160: 18cb f63e 9044 adbe b0a2 653f 9002 793f
00000170: fa0c 67bf 4065 183d 402c b9be 84f6 053f
00000180: d8b5 613e 9004 22bf 3c4a ca3e a06f 00be
00000190: 707e 40bf 5ee3 563f e653 4cbf f45b dcbe
000001a0: 62be 513f 62dc 50bf 985f 42be 8828 793e
000001b0: 08cd 503f 604e 84be 6634 25bf 6048 a53d
000001c0: e06f 66bd bef9 5cbf c076 6e3d 9a35 3d3f
000001d0: 482b 2d3f 08c7 7d3e 5e9c 6e3f 6610 5cbf
000001e0: 3467 e43e f8d1 583f 54c5 5b3f 0892 66bf
000001f0: e068 963e 4462 d8be c40b b0be e63c 57bf

layer2.weight f4 [128, 128]
-0.07292436 0.026605166 -0.081119016 0.023601834 -0.031514686 -0.0071852896 -0.035872806 0.029242622
0.038769305 0.07496678 -0.06717494 0.004752647 0.06561675 0.05703851 0.002836388 -0.056790866
-0.03452497 -0.0808641 0.07098784 -0.07354333 -0.084647305 -0.017629858 0.008250698 0.018570893
-0.043072384 -0.02805644 -0.013591189 0.051273517 0.056182265 -0.014934683 0.017337749 0.041932352
0.018952236 -0.03900737 0.018401789 -0.075381994 -0.041546445 0.076740324 0.024966486 0.021821488
0.04844714 -0.020049488 -0.044284545 0.00779841 -0.081213824 0.03602484 0.060610685 0.0678425
-0.051874086 -0.014277929 -0.015504445 -0.007047027 -0.029384887 -0.03764505 -0.019791065 -0.044590384
-0.02145323 0.08288036 0.08800148 0.011440467 0.032094162 0.01944761 -0.023799324 0.04413659
0.0050065294 -0.049502715 0.004899381 0.024924623 0.045271985 -0.051074613 -0.058111273 0.0024709539
0.014817673 -0.08264162 -0.08002051 -0.046891604 0.07310357 0.008087864 0.049269706 0.050159533
0.031318903 0.0049710837 -0.027412469 -0.05035071 -0.031185517 0.016411804 0.049972296 -0.029341487
-0.075850226 0.020659415 -0.024389865 -0.050961357 -0.026715454 -0.0008992873 -0.0726904 -0.058622673
0.08147012 0.04446092 0.043977045 0.078744546 0.061507843 0.023985624 -0.07150705 0.07827461
-0.025757456 -0.021870704 -0.066620946 -0.0051574674 0.062158003 0.06091895 0.00042478755 -0.07553205
-0.08141351 -0.047926445 -0.035022113 -0.064621665 -0.015872154 -0.03556766 0.0068966574 -0.07541996
-0.06333215 0.07280935 -0.034488335 -0.021725625 -0.053269126 0.010135327 -0.049498513 0.066309154
-0.057344727 0.07995414 0.0628755 0.03798494 -0.08386009 0.0594548 0.06415869 -0.001978468
-0.0742393 -0.05940476 0.024503797 -0.06940159 0.07341178 -0.022177892 0.013827138 -0.054436196
0.049501643 0.03391969 0.01752035 -0.004927588 0.018730376 0.06689116 0.034118958 -0.009682627
0.06152525 0.07741941 -0.058150195 0.08807196 0.08717341 -0.044784915 0.07019508 -0.0042015137
0.041767716 0.019658722 0.07143626 -0.08215671 -0.07860685 -0.04153221 0.025281375 -0.082237035
0.041178502 0.015753238 0.029269733 -0.020957625 -0.06574638 0.018221863 0.050080474 -0.06301733
-0.038971893 0.031051174 0.013527484 0.050167773 -0.083367005 -0.0016751897 0.0256733 -0.05599473
-0.0013359392 -0.016014485 0.0548943 0.0591792 0.040846027 0.020313358 -0.0031066968 -0.04971733
-0.044589162 0.06679752 0.037362993 0.08607508 0.013025873 0.0014870146 -0.07943175 -0.06143949
-0.06182927 -0.021099376 0.009127996 -0.022367943 0.086082175 0.079834454 0.042143855 0.084901
-0.07949168 0.0013845871 -0.06154345 -0.039157897 0.056698404 -0.06264646 -0.05648437 0.049778093
0.073745675 0.052599415 0.013552456 -0.0831113 0.041687574 0.019859564 -0.006779405 0.05552906
-0.008981757 0.014617317 -0.069970466 -0.080308005 -0.04280202 -0.03264853 0.049390826 0.012207276
0.0017168835 0.038825076 0.07757163 0.039616182 -0.047351014 -0.0690949 -0.063613944 0.016886652
-0.040318433 0.07146896 -0.08531672 -0.08774914 -0.010384404 -0.024227167 0.025737679 0.073403254
0.08814376 -0.062443253 0.022734325 0.06105541 -0.028176349 0.03809233 -0.07456737 -0.036413487
00000000: 5e59 95bd 14f3 d93c ba21 a6bd a258 c13c
00000010: 8b15 01bd 9472 ebbb 5def 12bd 398e ef3c
00000020: 90cc 1e3d 2f88 993d 0493 89bd 18bc 9b3b
00000030: 1362 863d 36a1 693d b2e2 393b 8a9d 68bd
00000040: 0e6a 0dbd 149c a5bd 1362 913d e39d 96bd
00000050: 915b adbd 7e6c 90bc f02d 073c fc21 983c
00000060: ab6c 30bd 9fd6 e5bc 94ad 5ebc 2e04 523d
00000070: 601f 663d 9ab0 74bc e507 8e3c 42c1 2b3d
00000080: b841 9b3c 31c6 1fbd 59bf 963c e061 9abd
00000090: 9b2c 2abd 082a 9d3d 8486 cc3c fac2 b23c
000000a0: 8270 463d d33e a4bc b663 35bd ce89 ff3b
000000b0: 6f53 a6bd c88e 133d e942 783d 02f1 8a3d
000000c0: ec79 54bd faed 69bc 5b06 7ebc bfea e6bb
000000d0: 93b8 f0bc b231 1abd df20 a2bc 68a4 36bd
000000e0: afbe afbc 2ebd a93d 1f3a b43d cc70 3b3c
000000f0: 2b75 033d 9850 9f3c cdf6 c2bc 92c8 343d
00000100: d00d a43b 5cc3 4abd fd8a a03b b92e cc3c
00000110: 1e6f 393d 9d33 51bd 1606 6ebd baef 213b
00000120: d3c5 723c 0240 a9bd cbe1 a3bd 6911 40bd
00000130: 53b7 953d f682 043c 08cf 493d 1574 4d3d
00000140: 4048 003d 79e4 a23b 1d90 e0bc 8c3c 4ebd
00000150: c578 ffbc 0c72 863c c0af 4c3d 8f5d f0bc
00000160: 5d57 9bbd ef3d a93c 41cd c7bc dbbc 50bd
00000170: 5eda dabc 26be 6bba b4de 94bd 541e 70bd
00000180: ced9 a63d a71c 363d 4621 343d d244 a13d
00000190: a6ef 7b3d 807d c43c 4a72 92bd 704e a03d
000001a0: 4d01 d3bc 312a b3bc 9070 88bd f9ff a8bb
000001b0: 6499 7e3d 2686 793d 05b6 de39 8cb0 9abd
000001c0: 20bc a6bd 854e 44bd 5973 0fbd 5d58 84bd
000001d0: 5206 82bc 65af 11bd 5bfd e13b c875 9abd
000001e0: 49b4 81bd 121d 953d a443 0dbd f0f9 b1bc
000001f0: ba30 5abd a40e 263c f4be 4abd 18cd 873d
00000200: 4ee2 6abd ffbe a33d dfc4 803d 1996 1b3d
00000210: d7be abbd e086 733d a265 833d 2fa9 01bb
00000220: c60a 98bd 6852 73bd 30bc c83c 6c22 8ebd
00000230: ea58 963d 69ae b5bc 388b 623c 7df8 5ebd
00000240: 3cc2 4a3d 5fef 0a3d d686 8f3c 9b77 a1bb
00000250: 7270 993c 3cfe 883d 52c0 0b3d e2a3 1ebc
00000260: e701 7c3d 118e 9e3d e62e 6ebd 125f b43d
00000270: f987 b23d 6370 37bd 70c2 8f3d daac 89bb
00000280: a014 2b3d 540b a13c 2d4d 923d c741 a8bd
00000290: a1fc a0bd ae1d 2abd e31a cf3c e46b a8bd
000002a0: caaa 283d ef0c 813c 14c7 ef3c 53af abbc
000002b0: 0aa6 86bd 0446 953c 2f21 4d3d 3b0f 81bd
000002c0: fea0 1fbd 085f fe3c 61a2 5d3c b97c 4d3d
000002d0: 52bc aabd 0a92 dbba d050 d23c bb5a 65bd
000002e0: ae1a afba cf30 83bc d8d8 603d e465 723d
000002f0: 2a4e 273d 3368 a63c b999 4bbb 66a4 4bbd
00000300: 20a3 36bd 23cd 883d f009 193d 2248 b03d
00000310: 796a 553c eee7 c23a 1dad a2bd faa7 7bbd
00000320: b040 7dbd 99d8 acbc 978d 153c fa3c b7bc
00000330: da4b b03d 3f80 a33d 099f 2c3d 93e0 ad3d
00000340: 89cc a2bd 097b b53a fc14 7cbd 0864 20bd
00000350: 963c 683d ca4c 80bd 285c 67bd 1de4 4b3d
00000360: f907 973d 7c72 573d 1f0b 5e3c 4236 aabd
00000370: 97c0 2a3d 86b0 a23c c525 debb 7172 633d
00000380: 3828 13bc 797d 6f3c ad4c 8fbd 8678 a4bd
00000390: 2c51 2fbd 77ba 05bd 094e 4a3d 0701 483c
000003a0: 0d09 e13a 0b07 1f3d e0dd 9e3d 9444 223d
000003b0: 23f3 41bd a081 8dbd 0748 82bd e055 8a3c
000003c0: f124 25bd 515e 923d 88ba aebd d2b5 b3bd
000003d0: 5923 2abc 0d78 c6bc d3d7 d23c 7254 963d
000003e0: b784 b43d 7fc4 7fbd 563d ba3c 3d15 7a3d
000003f0: 16d2 e6bc b406 1c3d c7b6 98bd 4f26 15bd

layer2.bias f4 [128]
-0.06892097 0.073015064 -0.0643987 0.077858515 -0.064568445 -0.043184735 -0.06347477 0.05380001
0.03709715 0.058611102 -0.040704403 -0.051528126 0.05415105 0.016083669 -0.074477285 0.0210806
0.07248098 -0.022826774 0.086531356 -0.037453048 -0.005128797 -0.030260509 -0.087263085 -0.054964557
0.03148812 0.021024376 0.03196521 0.038837045 -0.0005293117 0.011577813 -0.03515434 -0.04321236
-0.031206949 0.020552678 0.07676016 0.04142623 0.012992314 0.023024369 0.06473698 0.02184531
0.05956708 0.06487834 0.0014346155 -0.03143805 0.0104023265 -0.052125674 -0.018361475 0.060555212
-0.012782633 0.005827223 0.077686734 0.08193883 -0.00013842079 0.04423805 0.053614456 -0.07245206
0.005979942 0.07780107 0.08079207 -0.030562913 -0.054624125 0.07103249 -0.055587888 0.012138566
-0.069976054 0.04828466 0.0010478444 -0.061829638 -0.06063509 0.025117034 0.06331777 0.030318208
0.043949056 -0.040925212 0.026775513 0.051621966 -0.048427057 -0.05126831 -0.022543969 0.08456153
0.07996848 -0.08089992 -0.04362719 -0.05686675 -0.037703905 -0.0022559732 0.037811656 0.0756895
-0.008331852 0.08832583 -0.004647143 0.018338062 -0.049884398 0.025266645 0.024147257 0.06676206
-0.063424304 0.06123408 -0.044690724 0.057209667 0.011109814 0.07106958 -0.023613825 -0.06176331
0.01159111 0.084348194 0.055141892 -0.08021701 0.085099325 -0.014718564 -0.05939459 0.047671806
0.07321485 -0.032107837 -0.08536363 0.008502715 -0.027465783 -0.076922126 -0.011054444 -0.0152901495
0.009753581 -0.076739885 0.0802007 0.013270272 -0.058111116 0.087578334 -0.052729215 -0.040321637
00000000: 7026 8dbd ec88 953d 77e3 83bd 4974 9f3d
00000010: 763c 84bd 7ae2 30bd 0fff 81bd 665d 5c3d
00000020: 2ef3 173d 3212 703d a9b9 26bd 280f 53bd
00000030: 7ecd 5d3d e6c1 833c 8c87 98bd 39b1 ac3c
00000040: e870 943d 37ff babc 5a37 b13d 5e68 19bd
00000050: 780f a8bb e3e4 f7bc fdb6 b2bd 8422 61bd
00000060: b0f9 003d 503b ac3c f4ed 023d 9813 1f3d
00000070: 82c1 0aba deb0 3d3c fffd 0fbd 72ff 30bd
00000080: b7a5 ffbc 175e a83c 6e34 9d3d 8dae 293d
00000090: b7dd 543c 9a9d bc3c d294 843d f0f4 b23c
000000a0: 9cfc 733d efde 843d b509 bc3a 2fc5 00bd
000000b0: 856e 2a3c bb81 55bd ce6a 96bc be08 783d
000000c0: 406e 51bc 4af2 be3b 391a 9f3d 8ccf a73d
000000d0: 0c25 11b9 f532 353d d59a 5b3d bf61 94bd
000000e0: 64f3 c33b 2b56 9f3d 5076 a53d 135f fabc
000000f0: 8cbd 5fbd 7b79 913d 20b0 63bd d6e0 463c
00000100: 9b4f 8fbd 23c6 453d d357 893a 1341 7dbd
00000110: 805c 78bd 3dc2 cd3c bfac 813d e45d f83c
00000120: ed03 343d 32a1 27bd 5258 db3c 8e71 533d
00000130: 735b 46bd b8fe 51bd 21ae b8bc 982e ad3d
00000140: 84c6 a33d dbae a5bd 6db2 32bd 1ced 68bd
00000150: 696f 1abd f3d8 13bb 65e0 1a3d 1903 9b3d
00000160: 5282 08bc 2ce4 b43d 1047 98bb b439 963c
00000170: 9553 4cbd fffb ce3c 78d0 c53c 8cba 883d
00000180: 9ae4 81bd 96d0 7a3d 9f0d 37bd af54 6a3d
00000190: f005 363c ee8c 913d c871 c1bc 86fb 7cbd
000001a0: a4e8 3d3c bfbe ac3d 77dc 613d d148 a4bd
000001b0: 8e48 ae3d 2226 71bc be47 73bd 8343 433d
000001c0: abf1 953d 8283 03bd 20d3 aebd f94e 0b3c
000001d0: ecff e0bc 5989 9dbd b31d 35bc 8983 7abc
000001e0: 7ccd 1f3c cd29 9dbd 4440 a43d 8e6b 593c
000001f0: ec05 6ebd 455c b33d 97fa 57bd 4d28 25bd

layer3.weight f4 [3, 128]
-0.07434285 -0.03315133 0.053358257 0.013561528 -0.0069034006 -0.04928681 0.05190864 -0.04813951
0.016775867 0.0052842875 0.017747132 0.061662618 -0.077394016 0.014070546 0.06617741 0.053017575
-0.05254536 0.042070266 0.012441107 0.03085164 0.05984294 -0.008631758 0.029818378 0.028919071
0.055455368 0.087921284 -0.054714512 -0.05338973 0.012972779 -0.008963939 0.06412954 -0.0040890556
0.046184506 -0.07493678 0.074630275 0.07314065 0.084694 -0.045160294 0.020767892 -0.015880974
0.0491618 -0.06983124 0.012636995 -0.046646003 -0.08522528 0.017601736 0.02593383 0.05108382
0.04448568 0.03523723 0.0812753 -0.0567668 0.06529427 -0.07994495 0.016783254 -0.039781526
0.07484356 0.02613821 -0.07497605 -0.07659667 -0.06904576 -0.07347923 -0.081193745 0.0639721
-0.02130792 0.02915112 -0.056742586 0.003999367 0.031727694 0.07919413 -0.021621259 -0.062134307
-0.06346504 -0.08230493 -0.013342059 -0.062790155 0.0021956505 -0.06903577 -0.016137227 0.053803727
-0.056040093 -0.031140009 -0.05679019 -0.07817821 0.05740077 -0.04495524 0.07395312 0.0033740238
-0.04799903 -0.02062436 0.029535763 -0.052472983 -0.009127269 -0.04648047 0.06153646 -0.04556203
0.01350326 -0.007980032 -0.021414666 -0.054257028 0.086849 0.07238508 0.07923455 0.07794477
-0.027813338 -0.03260402 -0.047398273 -0.06378956 -0.0032698999 0.016232174 -0.04655232 0.026360504
0.08569546 0.023496214 0.05117682 0.045618925 0.05283868 0.005701952 0.049881015 -0.0126384385
-0.0670446 0.014172594 -0.04214668 0.04697397 -0.002249156 -0.04342729 0.07056253 0.0007548606
-0.03666136 -0.066296294 -0.045557033 0.058259904 -0.017375406 0.07052063 0.05688638 0.08633066
-0.042896945 0.010030992 -0.08446176 0.018245328 0.07685581 -0.047988676 -0.049277958 0.068598755
-0.0051707546 0.0070733367 -0.055954345 -0.052114777 -0.011124682 -0.020554764 0.007769118 -0.055589933
-0.016811177 0.030514192 0.08771877 0.01457105 0.05826334 0.0054454147 0.060886305 0.016355779
-0.07325311 0.045985244 0.03574784 0.083964184 -0.059923355 0.02054879 0.0142038455 0.04552574
0.019507121 -0.02586727 0.0801339 0.009594213 -0.06601254 -0.019937472 0.06797498 -0.026248815
-0.055935726 0.034922488 0.0054443087 -0.012378698 0.047462914 -0.05609302 0.03434474 0.009543827
-0.058386903 0.0069900444 0.071102194 0.05053467 -0.009441432 0.038573984 -0.03228336 0.050954517
-0.016999647 -0.020317173 -0.012240045 -0.063528776 0.014633185 -0.05505964 -0.0057964665 -0.013285687
-0.011727108 -0.08256144 -0.050457437 0.014068249 0.06720458 -0.022356933 0.04758181 -0.025371864
-0.030771846 -0.048840124 0.07060485 0.07406117 -0.027220836 -0.071780086 -0.021452134 0.07707259
-0.04025359 -0.003961024 0.025403127 0.05514248 0.01147469 -0.012284605 0.051044185 -0.0025087912
-0.08115874 0.07305257 -0.0751399 -0.0776241 -0.01789532 0.087689474 -0.040462058 0.073412366
0.083863124 0.083710425 -0.078769974 -0.0009786392 0.0058916025 0.05645698 0.009958984 -0.040132586
-0.038611602 -0.0552591 -0.01993961 -0.065777324 -0.012422752 0.016819932 0.017365966 -0.04535632
0.06776907 0.059905328 0.032780375 0.048612334 -0.071413144 -0.02874886 0.031882867 0.07402174
00000000: 1041 98bd b0c9 07bd 308e 5a3d 2c31 5e3c
00000010: ec35 e2bb f7e0 49bd 279e 543d ef2d 45bd
00000020: 8b6d 893c d127 ad3b 6f62 913c f191 7c3d
00000030: c180 9ebd 2688 663c 0688 873d f528 593d
00000040: ce39 57bd df51 2c3d c9d5 4b3c 94bc fc3c
00000050: df1d 753d 386c 0dbc ac45 f43c b0e7 ec3c
00000060: 2b25 633d 1310 b43d 531c 60bd 31af 5abd
00000070: c78b 543c 7cdd 12bc 5956 833d 7cfd 85bb
00000080: f72b 3d3d 7478 99bd c2d7 983d c4ca 953d
00000090: 0c74 ad3d 00fa 38bd 6d21 aa3c d118 82bc
000000a0: e25d 493d ae03 8fbd 660b 4f3c e10f 3fbd
000000b0: 978a aebd 8431 903c 2f73 d43c 453d 513d
000000c0: 9e36 363d ea54 103d aa73 a63d 4e84 68bd
000000d0: 01b9 853d 2eba a3bd 097d 893c f4f1 22bd
000000e0: 9547 993d cd1f d63c 0b8d 99bd b7de 9cbd
000000f0: dd67 8dbd 477c 96bd e848 a6bd ce03 833d
00000100: f28d aebc 54ce ee3c ea6a 68bd 1f0d 833b
00000110: e6f4 013d 8830 a23d 111f b1bc 8b80 7ebd
00000120: f5f9 81bd 7d8f a8bd a798 5abc 2098 80bd
00000130: e7e4 0f3b a062 8dbd 3832 84bc 4c61 5c3d
00000140: 4c8a 65bd 5519 ffbc d59c 68bd e61b a0bd
00000150: 121d 6b3d fc22 38bd bc74 973d ba1e 5d3b
00000160: a29a 44bd 6bf4 a8bc fcf4 f13c e9ed 56bd
00000170: 8a8a 15bc 4e62 3ebd a80d 7c3d 409f 3abd
00000180: c73c 5d3c aebe 02bc cf6d afbc 9e3c 5ebd
00000190: e3dd b13d a13e 943d b945 a23d 82a1 9f3d
000001a0: ccd8 e3bc cb8b 05bd b124 42bd 1aa4 82bd
000001b0: d14b 56bb 56f9 843c a5ad 3ebd fcf1 d73c
000001c0: 1a81 af3d 227b c03c c99e 513d e9da 3a3d
000001d0: 5f6d 583d 71d7 ba3b 0950 4c3d 7411 4fbc
000001e0: ae4e 89bd 2b34 683c ffa1 2cbd c767 403d
000001f0: 9366 13bb d0e0 31bd 1683 903d d6e1 453a
00000200: 392a 16bd 5ac6 87bd 039a 3abd f0a1 6e3d
00000210: de56 8ebc 1f6d 903d b101 693d 21ce b03d
00000220: b5b4 2fbd 0859 243c 4afa acbd 3a77 953c
00000230: 9466 9d3d c68f 44bd afd7 49bd 817d 8c3d
00000240: 6f6f a9bb 73c7 e73b 6230 65bd 4e76 55bd
00000250: 4c44 36bc 7762 a8bc 1694 fe3b 45b2 63bd
00000260: 98b7 89bc e6f8 f93c e6a5 b33d 6abb 6e3c
00000270: 8aa5 6e3d 736f b23b eb63 793d 8efc 853c
00000280: ba05 96bd 065b 3c3d 546c 123d 6af5 ab3d
00000290: 3172 75bd f055 a83c 3fb7 683c 3379 3a3d
000002a0: 66cd 9f3c 99e7 d3bc 3e1d a43d 0c31 1d3c
000002b0: 9531 87bd e953 a3bc 7736 8b3d c107 d7bc
000002c0: dc1c 65bd e20a 0f3d 2c66 b23b 06d0 4abc
000002d0: 7968 423d cbc1 65bd 12ad 0c3d b65d 1c3c
000002e0: 1b27 6fbd be0c e53b 079e 913d 71fd 4e3d
000002f0: 3cb0 1abc c1ff 1d3d 8e3b 04bd afb5 503d
00000300: d842 8bbc 3370 a6bc 788a 48bc 601b 82bd
00000310: 07c0 6f3c 3886 61bd 49f0 bdbb 36ac 59bc
00000320: 0e23 40bc f915 a9bd 75ac 4ebd 837e 663c
00000330: 8ea2 893d e325 b7bc 25e5 423d a8d8 cfbc
00000340: 3d15 fcbc 950c 48bd 4799 903d 62ad 973d
00000350: 3bfe debc 7001 93bd 63bc afbc 3cd8 9d3d
00000360: f3e0 24bd 7acb 81bb 381a d03c 15dd 613d
00000370: 5700 3c3c 5e45 49bc b513 513d 886a 24bb
00000380: 8e36 a6bd 969c 953d f3e2 99bd 62f9 9ebd
00000390: 3599 92bc 8a96 b33d 8bbb 25bd 3959 963d
000003a0: 6ec0 ab3d 5f70 ab3d 2752 a1bd af45 80ba
000003b0: 580e c13b 6f3f 673d 022b 233c 1162 24bd
000003c0: 3327 1ebd 5e57 62bd 6558 a3bc 43b6 86bd
000003d0: cc88 4bbc f4c9 893c 1243 8e3c 8cc7 39bd
000003e0: 83ca 8a3d 4a5f 753d b744 063d ba1d 473d
000003f0: 0e41 92bd bb82 ebbc 9c97 023d b698 973d

layer3.bias f4 [3]
-0.048294526 -0.06451132 -0.007881966
00000000: 7bd0 45bd 831e 84bd 5d23 01bc
