target_net_weights.pth (torch, 74479 bytes, 6 tensors)

layer1.weight f4 [128, 2]
0	0x3eb62b0d	0.3557972
1	0xbe8a81bf	-0.27052113
2	0xbe6cf355	-0.23139699
3	0x3f0ea361	0.55718046
4	0x3f0f078c	0.5587089
5	0x3ef4fedb	0.4785069
6	0x3f022850	0.5084276
7	0xbf243cab	-0.6415507
8	0xbf2dde71	-0.67917544
9	0x3ef083f9	0.46975687
10	0xbf21d856	-0.6322073
11	0xbe743996	-0.23850092
12	0xbe21afc1	-0.15789701
13	0x3f33af5f	0.7018947
14	0x3eaee07d	0.34155646
15	0xbeed0b3d	-0.46297637
16	0xbea8c40c	-0.32962072
17	0x3e6d5aa3	0.23179106
18	0xbeff6f61	-0.49889663
19	0xbe21cb66	-0.15800247
20	0xbf2c7fb4	-0.6738236
21	0xbf3285f8	-0.6973567
22	0xbef0c4c6	-0.47025126
23	0xbdc0b3a8	-0.09409267
24	0x3df952fe	0.12174033
25	0x3e580195	0.21094353
26	0x3ed5646e	0.41678184
27	0xbf272098	-0.6528411
28	0x3f1ae7f3	0.60510176
29	0x3ef25f23	0.4733821
30	0x3e8490d7	0.25891754
31	0xbd5ecf90	-0.054397166
32	0x3ebc153b	0.36734948
33	0xbd77537d	-0.060382355
34	0x3e1f6d41	0.15569021
35	0x3ea1a887	0.3157389
36	0x3d5c6bbd	0.053813685
37	0xbe1abcc3	-0.1511107
38	0x3db973ae	0.09055267
39	0x3e7e2d78	0.24822032
40	0x3ebdcbdc	0.37069595
41	0xbeca5521	-0.39518073
42	0xbe8952d7	-0.26821014
43	0x3e4394e8	0.19099772
44	0x3ec2c4a9	0.38040665
45	0x3f2d6657	0.67734283
46	0x3e07ed14	0.13274032
47	0x3e2cd13d	0.16876693
48	0x3ec70dbd	0.3887767
49	0xbe58e096	-0.21179423
50	0x3e278e7d	0.16362949
51	0x3d979ff7	0.07403558
52	0xbcdbf755	-0.026851336
53	0xbcd03e5f	-0.025420366
54	0xbf1f7f35	-0.6230348
55	0xbe6ca779	-0.23110761
56	0x3f29c8b3	0.6632187
57	0xbec966e6	-0.39336318
58	0x3e8f751b	0.28019032
59	0xbe947785	-0.28997436
60	0x3e1c0180	0.15234947
61	0xbe43495b	-0.19070952
62	0xbf1ca12b	-0.6118342
63	0x3ec42c42	0.38315016
64	0x3eabc9d5	0.33552423
65	0xbf0d44b9	-0.5518299
66	0xbedb843a	-0.42874318
67	0x3e4d566d	0.200525
68	0x3f013183	0.50466174
69	0x3e347f6b	0.17626731
70	0xbf29896c	-0.66225314
71	0x3e136fc5	0.14398105
72	0x3ef20c84	0.47275174
73	0x3d201d7a	0.03909061
74	0x3f2ad56a	0.66731894
75	0x3e8c8135	0.27442327
76	0x3d7600c9	0.060059343
77	0x3d3f07dc	0.046638355
78	0xbd625a13	-0.055261683
79	0xbf1f6677	-0.62265724
80	0xbf1572c5	-0.5837825
81	0xbe02b3ac	-0.12763852
82	0x3f012456	0.5044607
83	0xbe40be4f	-0.18822597
84	0x3e0ab65f	0.13546132
85	0x3e64072d	0.22268362
86	0x3e8ccbc6	0.27499217
87	0x3eee0126	0.4648525
88	0x3de8e919	0.11372585
89	0x3f2ba26a	0.670447
90	0x3d777777	0.060416665
91	0x3d68843f	0.056766745
92	0x3ea65a50	0.32490778
93	0x3f25d481	0.6477738
94	0xbf2fb648	-0.68637514
95	0xbeec8e67	-0.46202394
96	0xbe0ec073	-0.13940601
97	0xbf1a8642	-0.6036111
98	0xbe740ab8	-0.23832214
99	0x3e51e922	0.2049909
100	0xbe5d3c7d	-0.21605106
101	0x3e8ef967	0.27924654
102	0xbf1552e9	-0.58329636
103	0x3f049827	0.51794666
104	0xbd9825a7	-0.074290566
105	0x3eafe3b3	0.34353408
106	0x3e84d79d	0.2594575
107	0x3f0150cb	0.50513905
108	0xbeca246d	-0.39480916
109	0xbedb060e	-0.42778057
110	0xbe88b133	-0.26697692
111	0xbe0057ac	-0.12533444
112	0x3f01c5e6	0.50692594
113	0xbee01d62	-0.43772417
114	0x3ef27257	0.4735286
115	0x3d1292b6	0.035784446
116	0x3efe23db	0.4963673
117	0x3f242abf	0.64127725
118	0x3e70912d	0.2349288
119	0x3d051057	0.032486286
120	0xbf0a61f9	-0.54055744
121	0xbe82fb3c	-0.25582302
122	0x3efdedb8	0.49595428
123	0x3deef681	0.11668111
124	0x3eda7b2c	0.42672098
125	0x3ecbb1c4	0.39784062
126	0xbe8b6df1	-0.27232316
127	0x3f236d26	0.6383842
128	0xbea4eaf8	-0.32210517
129	0xbec91220	-0.3927164
130	0xbe9b8d12	-0.30381066
131	0x3e9a1d85	0.30100647
132	0x3dec497e	0.11537455
133	0x3f34ff85	0.7070239
134	0xbf13e22a	-0.57766974
135	0xbf01838d	-0.50591356
136	0x3f001d9a	0.5004517
137	0x3e28b872	0.1647661
138	0x3f00d016	0.50317514
139	0x3f0159e9	0.50527817
140	0xbd8e08ab	-0.06935247
141	0xbf029dcf	-0.51022047
142	0xbe730b46	-0.23734769
143	0xbedadd70	-0.42747068
144	0xbebe2c3f	-0.37143132
145	0xbf326c27	-0.6969628
146	0x3f191b86	0.5980762
147	0xbed2b41b	-0.41153035
148	0xbeb9222a	-0.36158878
149	0x3f33cffe	0.70239246
150	0x3e56c615	0.20974
151	0x3e3748d8	0.17898881
152	0xbec218b9	-0.37909487
153	0x3f2eb4a3	0.6824438
154	0xbd4bfd6d	-0.049802233
155	0x3e9656d9	0.29363135
156	0xbe94c72e	-0.29058212
157	0xbeaff930	-0.34369802
158	0x3f313591	0.6922236
159	0x3ed475ae	0.41496032
160	0xbdd0c9ac	-0.10194716
161	0xbec0a4a2	-0.37625605
162	0x3e6b2301	0.22962572
163	0x3e575fbf	0.21032618
164	0xbf105bc9	-0.56390053
165	0x3f31d227	0.6946129
166	0x3e9f607e	0.31128305
167	0x3ee078be	0.4384212
168	0xbecfa7ec	-0.40557802
169	0xbf2e272d	-0.6802853
170	0xbefaa801	-0.48956302
171	0xbefcb963	-0.4936019
172	0x3df92639	0.121654935
173	0xbf1ab751	-0.6043597
174	0x3cd174ca	0.025568385
175	0xbe193f20	-0.14965487
176	0xbe6316a7	-0.2217661
177	0xbf12a956	-0.57289636
178	0xbdec889a	-0.11549492
179	0x3ede0fa1	0.433713
180	0xbe81e3aa	-0.25369006
181	0x3f2e549b	0.6809785
182	0x3ec0bf67	0.37646028
183	0x3f067414	0.5252087
184	0x3ef2368f	0.4730725
185	0x3f1bac33	0.6080963
186	0x3e88e0dd	0.26734057
187	0xbef4cdf2	-0.47813374
188	0x3ef05cbe	0.46945757
189	0x3e84ce45	0.2593862
190	0x3f15a143	0.5844919
191	0xbc887f73	-0.016662335
192	0x3f282491	0.65680796
193	0x3ec3866b	0.3818849
194	0xbc6f2000	-0.014595032
195	0x3f057968	0.52138376
196	0x3ee106c6	0.4395048
197	0xbeeb5092	-0.45959908
198	0xbf1944f6	-0.5987085
199	0xbe3d4dda	-0.1848673
200	0x3e17db02	0.14829639
201	0xbedf4434	-0.43606722
202	0x3eb6c1f1	0.3569484
203	0x3dc8af6b	0.09799083
204	0xbe0cfa82	-0.13767436
205	0x3edb2358	0.42800403
206	0x3f181428	0.59405756
207	0x3e8c5d52	0.27414948
208	0xbe8a4216	-0.27003545
209	0x3eec0213	0.46095333
210	0x3ec510a2	0.38489252
211	0x3f08ef15	0.5348981
212	0xbeeef607	-0.4667208
213	0xbf0839bc	-0.53213096
214	0xbee910a7	-0.45520517
215	0x3d97397a	0.0738401
216	0x3e977e19	0.29588392
217	0x3f11c9ee	0.56948745
218	0x3f1c35ce	0.610196
219	0xbe67e46b	-0.22645728
220	0xbc21687e	-0.009851573
221	0x3e17615d	0.14783235
222	0x3eeba514	0.46024382
223	0xbe6ab0cf	-0.2291901
224	0x3f17f0b8	0.5935168
225	0xbef40720	-0.47661686
226	0xbe7b487c	-0.2453937
227	0xbf0bc9a5	-0.5460456
228	0xbcfe3c0d	-0.031034494
229	0xbef3b101	-0.4759598
230	0x3ed19176	0.4093129
231	0xbe9a8d85	-0.30186096
232	0xbf23624d	-0.6382187
233	0x3f077979	0.5291973
234	0xbd068dbc	-0.032850012
235	0x3e5efba0	0.21775675
236	0x3f0d9751	0.55309016
237	0xbefbdec2	-0.49193388
238	0x3f0075b8	0.50179625
239	0xbf084ba0	-0.53240395
240	0xbf0670c9	-0.52515846
241	0x3ec085b2	0.37602
242	0xbef82470	-0.484653
243	0x3eba114f	0.3634133
244	0x3cd7ee9a	0.026358891
245	0x3e1d3b7a	0.1535472
246	0xbeea1311	-0.45717672
247	0xbd6985fd	-0.057012547
248	0x3e0e1ddc	0.13878578
249	0xbe8a9c8d	-0.27072564
250	0xbf0c9ba0	-0.54924965
251	0x3e67192c	0.22568196
252	0x3ca6ac6a	0.020345885
253	0xbda554ce	-0.08072816
254	0x3f2dc23c	0.67874503
255	0x3f03dfd0	0.51513386

layer1.bias f4 [128]
0	0xbe18f037	-0.14935385
1	0xbeef7d02	-0.4677506
2	0xbf1d1de0	-0.6137371
3	0x3ef88c8a	0.48544723
4	0xbe0c9d1b	-0.13731806
5	0x3ee612e1	0.44936278
6	0x3f1739d3	0.5907261
7	0x3efe77b4	0.497007
8	0xbf120988	-0.57045794
9	0x3d4ecd70	0.05048889
10	0x3f02edca	0.5114409
11	0xbecab54c	-0.39591444
12	0xbf342011	-0.7036143
13	0xbf12002f	-0.5703153
14	0xbe304350	-0.17213178
15	0x3f04b275	0.51834804
16	0xbeda9b75	-0.4269673
17	0xbe584b36	-0.2112244
18	0x3cdcabff	0.026937483
19	0xbc729388	-0.014805682
20	0xbe9ff2f3	-0.31240043
21	0x3e0118b1	0.12607075
22	0xbd132870	-0.035927236
23	0x3eefa8f3	0.46808586
24	0xbf3237a4	-0.6961615
25	0x3cf2880a	0.029605884
26	0xbf21326d	-0.6296757
27	0x3e5e237e	0.21693227
28	0xbdf25888	-0.11833292
29	0x3e46b8f9	0.19406499
30	0xbe76ddef	-0.24108098
31	0x3e984bbf	0.2974529
32	0xbf0de9fc	-0.55435157
33	0xbcd2e2e5	-0.025742957
34	0x3f2d1084	0.67603326
35	0xbec54e78	-0.3853643
36	0x3e8f5f02	0.28002173
37	0x3f1bde1b	0.6088578
38	0x3e0a4bb0	0.13505435
39	0x3efe0f9d	0.49621287
40	0xbee11aed	-0.43965855
41	0xbe9fd5a1	-0.31217673
42	0x3ea84f79	0.32873133
43	0xbeb329d1	-0.3499284
44	0x3f1fe1d6	0.62453973
45	0xbecca54f	-0.3996987
46	0xbed2c970	-0.4116931
47	0xbee711b1	-0.45130685
48	0x3ec3c7b7	0.38238308
49	0x3f0bbad4	0.5458195
50	0xbf2fe4a9	-0.6870828
51	0x3f1d1035	0.61352855
52	0xbe586532	-0.21132353
53	0xbda3aca1	-0.07991911
54	0xbece1783	-0.40252313
55	0x3e9c579a	0.30535585
56	0xbf2c4473	-0.67291945
57	0xbe9bec93	-0.3045393
58	0xbe26555f	-0.16243504
59	0x3e25bef0	0.16186118
60	0x3dd73d62	0.10509755
61	0x3f12a62d	0.57284814
62	0xbed6ab77	-0.41927692
63	0xbe62c5a4	-0.22145706
64	0xbf15dee4	-0.5854323
65	0xbda6b5c8	-0.08140141
66	0xbf07dc09	-0.5307012
67	0x3f32fe9a	0.6991974
68	0x3efd6054	0.49487555
69	0x3ef0b55c	0.47013366
70	0xbf1d1755	-0.61363727
71	0xbe0b36d8	-0.1359514
72	0x3f2730be	0.6530875
73	0xbf0fb42f	-0.56134313
74	0xbe96a20e	-0.29420513
75	0x3e722c3a	0.23649684
76	0xbec6c83b	-0.3882464
77	0x3f202a12	0.62564194
78	0x3f1ee844	0.6207316
79	0x3ef9cd1a	0.48789293
80	0x3f0ab7c5	0.5418666
81	0x3f259fbe	0.6469687
82	0x3e9a114d	0.30091324
83	0x3de8e558	0.11371869
84	0xbef1b731	-0.47210076
85	0xbdc8cb7b	-0.09804436
86	0x3f082c96	0.5319303
87	0x3e672131	0.22571255
88	0x3e6518f0	0.22372794
89	0x3f27f7c8	0.6561246
90	0x3f033705	0.5125583
91	0xbeb107be	-0.3457622
92	0x3b93dd8c	0.0045124944
93	0xbeb9042a	-0.3613599
94	0x3ea1d61d	0.31608668
95	0xbd28173f	-0.041037794
96	0x3e052dd1	0.13005759
97	0xbda8aa53	-0.08235612
98	0xbe08ed6d	-0.13371821
99	0x3eee1bc3	0.46505556
100	0xbd480895	-0.04883631
101	0xbebf4f63	-0.37365255
102	0x3f1cc45f	0.6123714
103	0x3ece3840	0.4027729
104	0x3f1ec325	0.62016517
105	0xbf10c57a	-0.56551325
106	0x3b3d3092	0.0028868061
107	0xbe0d43bd	-0.13795371
108	0x3d9db55e	0.07700609
109	0x3e86a5e3	0.26298437
110	0xbe7cb9b5	-0.24680217
111	0x3e2d7d99	0.16942443
112	0x3ed73316	0.42031163
113	0x3eacb8d8	0.33734775
114	0xbe026eaa	-0.12737527
115	0x3f1fb376	0.6238321
116	0x3f04bbda	0.5184914
117	0x3e1607be	0.14651391
118	0xbf2a798f	-0.66591734
119	0xbf12c62a	-0.57333624
120	0xbebec0b5	-0.372564
121	0xbebbe1e9	-0.36695793
122	0x3db2e2f9	0.08734698
123	0xbeef956d	-0.4679369
124	0xbd36fc25	-0.044674058
125	0x3e110e6b	0.14165656
126	0xbd13d252	-0.03608925
127	0x3e8caac8	0.27474046

layer2.weight f4 [128, 128]
0	0x3d4025c3	0.046911012
1	0xbccbc3d7	-0.024873657
2	0x3d86266a	0.06550296
3	0xbd2c4b5d	-0.04206406
4	0x3d5bc18f	0.05365139
5	0x3d589ae2	0.052882083
6	0x3d5bdf80	0.053679943
7	0x3cbc4d15	0.022985974
8	0xbd81522a	-0.063145
9	0xbd5e2d12	-0.0542422
10	0x3d92d586	0.071696326
11	0xbd578b6e	-0.052623205
12	0xbc212956	-0.009836515
13	0xbc7e6a47	-0.015528268
14	0xbd8f7dd1	-0.070064195
15	0xbd7ddc5f	-0.06197774
16	0xbd0acd46	-0.03388717
17	0xbd5f81b9	-0.054567073
18	0xbd651000	-0.055923462
19	0xbda49088	-0.0803538
20	0x3c8cae46	0.017172944
21	0xb9e8b017	-0.00044381685
22	0x3cf55e81	0.02995229
23	0xbd4713a9	-0.048602734
24	0xbc3bc26c	-0.011459928
25	0x3d92b3f1	0.07163227
26	0xbda70237	-0.08154719
27	0xbcb21c6f	-0.021742074
28	0x3d1cd5ee	0.038289957
29	0xbcb1bc1c	-0.021696143
30	0x3d22792e	0.039666347
31	0x3ca7fdd0	0.02050677
32	0x3d4eead4	0.05051692
33	0xbbdf18c0	-0.0068083704
34	0x3da7b93b	0.08189627
35	0xbc9dd721	-0.01926762
36	0xbdaee69f	-0.08540081
37	0x3d8c7235	0.06857721
38	0x3ca0c548	0.019625321
39	0x3c90a19d	0.017655188
40	0xbd11df6a	-0.035613455
41	0x3c2b8694	0.010469098
42	0x3d8f1b1e	0.06987594
43	0x3c13ff94	0.009033103
44	0xbdb49b6e	-0.08818708
45	0x3d8a4780	0.06751919
46	0x3da36529	0.07978279
47	0xbccf3447	-0.025293482
48	0xbc61cf70	-0.013782367
49	0x3cba8ea7	0.0227731
50	0x3d51ac14	0.051189497
51	0x3cc9eff5	0.024650553
52	0xbce5d069	-0.02805348
53	0x3d0a59c9	0.033777032
54	0x3d84d9fe	0.06486891
55	0x3d4ae928	0.04953876
56	0xbd3b5c7a	-0.04574249
57	0xbd0cca64	-0.034372702
58	0xbc2b1c07	-0.010443694
59	0x3d8beeff	0.06832694
60	0x3d8ba5cd	0.06818733
61	0x3d14db99	0.036342237
62	0xbda42b68	-0.080160916
63	0xbd7bab4e	-0.061442666
64	0xbc1e67b0	-0.009668276
65	0xbd31fe0c	-0.04345517
66	0xbc77b8a6	-0.015119707
67	0xbd7e5d08	-0.06210044
68	0xba2770d0	-0.0006387355
69	0xbb68553a	-0.003545119
70	0xbda678e3	-0.08128526
71	0x3c54cdc2	0.01298851
72	0xbd0f838b	-0.03503756
73	0xbd5eccbf	-0.05439448
74	0x3d980a8b	0.07423886
75	0x3ca0c6a1	0.019625964
76	0xbd1e4551	-0.038640324
77	0x3d89fdfc	0.06737897
78	0xbc408727	-0.011750973
79	0x3d4ad5a5	0.049520154
80	0x3c797210	0.0152249485
81	0x3cf59581	0.029978516
82	0xbceed178	-0.029152617
83	0xbbdb5595	-0.006693552
84	0x3d6f74fa	0.058461167
85	0xbc6c8ff0	-0.014438614
86	0xbd3637b3	-0.044486713
87	0x3d709ba1	0.05874217
88	0xbd8db638	-0.06919521
89	0xb8bc9ee8	-8.994137e-05
90	0xbd927a4c	-0.071522325
91	0xbc7d98aa	-0.0154782925
92	0xbce8158b	-0.028330585
93	0xbce1ba3f	-0.02755463
94	0xbd66172d	-0.056174446
95	0x3c92f812	0.017940555
96	0x3c8bcc16	0.01706509
97	0x3d976c03	0.073936485
98	0xbd67ab99	-0.056560133
99	0x3d1666dc	0.036719188
100	0xbd0faade	-0.03507506
101	0xbda9c42f	-0.08289372
102	0xbd7e72c9	-0.062121186
103	0xbd6e6389	-0.058200393
104	0x3ccd92aa	0.025094349
105	0xbd71c0e4	-0.059021845
106	0x3ca2bc9c	0.019865327
107	0xbd733fde	-0.05938708
108	0xbd1cfaa0	-0.038324952
109	0x3a8f6c85	0.0010942376
110	0xbd3f37a7	-0.046683934
111	0xbc8f42c1	-0.017487885
112	0xbd3c2e3f	-0.04594254
113	0xbdaa704d	-0.08322201
114	0xbbeeaacc	-0.007283544
115	0xbd9d907b	-0.07693573
116	0x3c48c2ff	0.012253522
117	0xbb12025f	-0.0022279245
118	0x3ca5ffec	0.020263635
119	0x3d4f6f93	0.050643515
120	0xbd1847fa	-0.037178017
121	0xbc0e8ab0	-0.008700058
122	0xbdb13d49	-0.08654267
123	0x3c4cfdc1	0.0125116715
124	0x3d5ad7ce	0.053428464
125	0x3d8731f1	0.066013224
126	0x3ce0258a	0.02736165
127	0x3d1e28e7	0.038613226
128	0xbd8506d0	-0.0649544
129	0x3d9231e7	0.07138424
130	0xbcb5db8e	-0.022199418
131	0xbc9a4028	-0.01882942
132	0x3901f99e	0.00012395388
133	0xbd80e7bc	-0.062942
134	0xbcfc9917	-0.030834718
135	0xbd997232	-0.07492484
136	0xbcff1b0e	-0.03114083
137	0x3d40742c	0.04698579
138	0xbd336474	-0.04379697
139	0x3c69d50d	0.014271987
140	0xbd957ede	-0.072995886
141	0x3d2281c7	0.039674547
142	0x3d47fb0a	0.048823394
143	0xbbf4c7fb	-0.0074701286
144	0x3dae3380	0.085059166
145	0x3c0227d8	0.00794407
146	0xbcea8c91	-0.02863148
147	0xbd9db5dd	-0.07700703
148	0xbd739fab	-0.059478443
149	0xbd9ed131	-0.07754744
150	0x3d8dfbf5	0.069328226
151	0x3d230689	0.039801154
152	0xbcb7168d	-0.02234962
153	0xbc893653	-0.016749537
154	0x3d143094	0.03617914
155	0x3d43211e	0.047639005
156	0x3da168e5	0.07881335
157	0xbd8a5b09	-0.06755645
158	0xbc4e1c65	-0.012580012
159	0x3cc1e8e2	0.023670617
160	0xbc482462	-0.012215706
161	0xbd6500ee	-0.05590909
162	0x3d128480	0.035770893
163	0x3d9c7c0a	0.07640846
164	0xbd09c652	-0.0336364
165	0xbd62bb69	-0.05535451
166	0xbcc22782	-0.02370048
167	0x3d10d081	0.035355095
168	0x3d8a5e92	0.06756319
169	0xbd989ba6	-0.074515626
170	0xbd0003e1	-0.0312537
171	0x3c077396	0.008267304
172	0x3d255b20	0.040370107
173	0x3cbdd1b4	0.023171283
174	0xbaeba7e0	-0.0017979108
175	0x3d871cbc	0.065972775
176	0x3cc08431	0.023500534
177	0xbd9c6bd4	-0.07637754
178	0x3c4aca03	0.012377265
179	0xbd38ee0c	-0.045148894
180	0x3d44e5c9	0.048070703
181	0xbce6733e	-0.028131124
182	0x3d4e30cd	0.05033951
183	0x3c9f5fd1	0.019454869
184	0x3cb79662	0.022410575
185	0xbb806f67	-0.00391953
186	0x3d828637	0.06373256
187	0xbd4863e4	-0.048923388
188	0xbd82940b	-0.06375893
189	0x3d3fd581	0.046834473
190	0x3d92a459	0.07160253
191	0x3d0a2532	0.03372688
192	0xbd6535d7	-0.05595955
193	0xbd8c74f0	-0.068582416
194	0x3da007f7	0.07814019
195	0x3d90057f	0.07032298
196	0xbd580888	-0.05274251
197	0xbda33cb5	-0.07970563
198	0x3d4b3c66	0.049618147
199	0x3d93941b	0.07205983
200	0x3d797555	0.060902912
201	0xbd297919	-0.041375253
202	0x3d9d82a7	0.076909356
203	0x3d9027ed	0.07038865
204	0xbd596088	-0.053070575
205	0x3ca6720e	0.020318057
206	0xbcb06ea5	-0.021537134
207	0xbd48394f	-0.04888278
208	0xbd6a927d	-0.05726861
209	0x3cb2c2fa	0.021821488
210	0x3cdf217a	0.027237643
211	0xbd15dacf	-0.036585625
212	0x3d429d79	0.04751346
213	0xbcbb4166	-0.022858333
214	0x3d0c1d27	0.03420749
215	0xbd8d3e15	-0.06896607
216	0xbbe0cd7a	-0.006860432
217	0x3d98bdb9	0.07458062
218	0xbb62d0c8	-0.0034609307
219	0xbd775b12	-0.060389586
220	0xbd099ad2	-0.033594914
221	0xbdb02f7f	-0.08602809
222	0xbcba48f0	-0.022739857
223	0x3da29e38	0.07940334
224	0x3ce8db66	0.02842493
225	0x3d5c784a	0.053825654
226	0x3d27a50a	0.040928878
227	0xbc9a98a8	-0.01887162
228	0x3d1638f4	0.03667541
229	0xbd5359ca	-0.0515993
230	0x3d5a14eb	0.053242605
231	0xbd00ea63	-0.03147353
232	0x3d5a6d10	0.053326666
233	0xbdaca0c4	-0.08429101
234	0x3c97af3b	0.018516174
235	0xbccbb11a	-0.024864722
236	0x3ca041e5	0.019562671
237	0xbd331e3a	-0.04373
238	0xbd442ee6	-0.04789629
239	0xbc64d12b	-0.013965885
240	0xbc1e15aa	-0.00964872
241	0x3c2ab547	0.010419196
242	0x3c0057b7	0.007833413
243	0x3d55b8e5	0.052178282
244	0xbd5dd0fc	-0.05415438
245	0x3ba61956	0.0050689382
246	0x3b74a691	0.0037330727
247	0x3cff4ffa	0.031166065
248	0xbceabd9a	-0.028654862
249	0xbd4b2f84	-0.04960586
250	0x3d1e4f10	0.03864962
251	0x3cecb997	0.02889709
252	0x3d4f9795	0.05068167
253	0x3d05e851	0.032692257
254	0xbd568eb5	-0.05238219
255	0xbd9751e3	-0.073886655

layer2.bias f4 [128]
0	0xbd850b40	-0.064962864
1	0xbba8a21b	-0.0051462776
2	0xbdb1ebe8	-0.08687574
3	0xbce8c05a	-0.028412033
4	0xbda35a8c	-0.07976255
5	0x3dafd234	0.08585015
6	0x3db2e603	0.087352775
7	0xbcd2aa3d	-0.025715942
8	0xbd226cc9	-0.039654527
9	0xbcc7ac9e	-0.024374302
10	0x3d16fc17	0.036861505
11	0x3d6c89c3	0.057748567
12	0x3d132fe8	0.03593436
13	0x3a86cc39	0.0010284252
14	0xbdaef912	-0.085436
15	0xbd330c57	-0.04371294
16	0xbd9f5514	-0.07779899
17	0xbd7e8942	-0.062142618
18	0xbd55c51a	-0.052189924
19	0xbccf7d87	-0.02532841
20	0x3ca62610	0.020281821
21	0x3daf62bc	0.08563754
22	0xbd89b9bc	-0.06724879
23	0xbd9d469e	-0.07679485
24	0x3d9510d4	0.072786
25	0x3c280cbb	0.010256941
26	0x3d413038	0.047165126
27	0xbcaaa613	-0.020831143
28	0x38ec59b6	0.00011270067
29	0xbd205f40	-0.039153337
30	0x3daa658e	0.08320151
31	0x3ce626a2	0.028094593
32	0xbdae59d7	-0.08513229
33	0xbcebe7c8	-0.028797045
34	0xbd627c37	-0.05529424
35	0xbd62bb06	-0.05535414
36	0x3d9b0fee	0.07571398
37	0xbc9d56e7	-0.019206477
38	0x3da1c7eb	0.078994595
39	0x3d95960b	0.07304009
40	0x3d09f6e6	0.033682726
41	0xbc2e155c	-0.01062521
42	0xbcbb6a9c	-0.022877984
43	0xbd31b62e	-0.04338663
44	0xbd9cc79e	-0.076552615
45	0x3d358dc9	0.04432467
46	0xbc993e70	-0.01870653
47	0xbbf41668	-0.00744896
48	0xbda4aafe	-0.08040427
49	0xbd6c1120	-0.05763352
50	0x3d8c2a41	0.06843997
51	0x3c993a1b	0.018704465
52	0x3d3bc754	0.04584439
53	0x3d191510	0.037373602
54	0x3cfdd372	0.030984614
55	0xbccea204	-0.02522374
56	0xbd06f8e2	-0.032952197
57	0x3d755922	0.059899457
58	0xbd2687ff	-0.04065704
59	0xbdaccca3	-0.08437469
60	0xbcc743eb	-0.024324378
61	0x3d6085b1	0.054814998
62	0xbd2368d3	-0.03989489
63	0xbd125af5	-0.035731275
64	0x3d1a329f	0.037645932
65	0xbd96e4c9	-0.07367856
66	0x3d807af3	0.06273451
67	0x3ce63a52	0.028103981
68	0xbcb20c53	-0.021734392
69	0xbd4fc8e1	-0.050728682
70	0xbcbdd778	-0.023174033
71	0x3c2a4719	0.010392928
72	0xbc80ce28	-0.015723303
73	0x3d6796f0	0.05654043
74	0xbd113b08	-0.035456687
75	0xbc1b2570	-0.009469375
76	0x3c1a0232	0.0093999375
77	0x3d3ba96b	0.045815866
78	0x3d9c1a96	0.07622258
79	0x3d996cc8	0.074914515
80	0x3d17046f	0.036869463
81	0x3c9c53a3	0.01908285
82	0xbb14da84	-0.0022713253
83	0xbd9e3f13	-0.07726874
84	0xbd2639e5	-0.040582556
85	0x3d8ea11e	0.069643244
86	0x3d5971bb	0.053086977
87	0xbc9300a4	-0.017944641
88	0x3c594bde	0.013262717
89	0xbdaada41	-0.0834241
90	0xbcc88163	-0.024475759
91	0x3cd1770b	0.02556946
92	0x3d7fb721	0.062430505
93	0xbd3fffeb	-0.04687492
94	0xbd33c669	-0.04389039
95	0x3d393c42	0.045223482
96	0x3d81f8c5	0.06346277
97	0x3d31a9b4	0.043374732
98	0xbd136c09	-0.035991702
99	0xbcaa16a4	-0.020762749
100	0x38177f64	3.6119847e-05
101	0x3d3e494e	0.046456628
102	0xbdab97c5	-0.08378557
103	0x3d25e9fb	0.040506344
104	0x3c2a4171	0.010391579
105	0xbd3ba34f	-0.04581004
106	0x3d259e52	0.04043419
107	0x3cf38918	0.029728457
108	0xbd7375f8	-0.059438676
109	0xbd0727f3	-0.032997083
110	0xbcf12321	-0.029435696
111	0x3c8d012f	0.017212478
112	0x3c63fb88	0.01391495
113	0xbd271dc8	-0.040799886
114	0x3d842e1a	0.06454106
115	0x3d937fb0	0.07202089
116	0xbcf7d4a0	-0.030252755
117	0x3c8705ca	0.016482253
118	0x3d8675e4	0.065654546
119	0xbd9f7f06	-0.077879
120	0x3d52d6e8	0.05147448
121	0xbcb7068d	-0.02234199
122	0xbdb20629	-0.08692581
123	0x3c8a97f2	0.016918156
124	0x3d79a4be	0.060948126
125	0x3d21381c	0.03936015
126	0xbd04e1c5	-0.032441873
127	0x3d033aaa	0.03203837

layer3.weight f4 [9, 128]
0	0x3d0114fd	0.031514157
1	0x3d99c3bc	0.075080365
2	0xbd31fd0e	-0.043454222
3	0xbd8ac6da	-0.06776209
4	0x3dae855c	0.0852153
5	0x3c187e7b	0.009307499
6	0x3cba51c7	0.022744073
7	0x3c3d8adc	0.011568751
8	0x3c8a0976	0.016850214
9	0x3cc21306	0.023690712
10	0x3d74d888	0.059776813
11	0xbc261cdf	-0.010138719
12	0x3cb03d6f	0.021513669
13	0x3d88aae4	0.0667322
14	0xbd148516	-0.036259733
15	0x3d36aeac	0.044600174
16	0xbd6b8159	-0.057496402
17	0x3d88ee09	0.066860266
18	0xbd771316	-0.060320936
19	0xbc9b92a4	-0.018990822
20	0x3d0b5af1	0.034022275
21	0x3c869594	0.016428746
22	0xbd7f2a4d	-0.0622962
23	0x3ce220c7	0.02760352
24	0xbd3f47ff	-0.04669952
25	0xbd1c5ae8	-0.038172632
26	0xbd624d4d	-0.0552495
27	0x3d3adefd	0.045622814
28	0xbb4beec1	-0.003111765
29	0x3b0e63e2	0.0021727015
30	0xbd06dab3	-0.03292341
31	0x3d39a569	0.045323763
32	0xbd6ac7c7	-0.05731943
33	0x3d84814f	0.06469976
34	0xbd61230f	-0.054965075
35	0x3d99b74b	0.075056635
36	0x3d77ef46	0.060530923
37	0xbd15ddf5	-0.036588628
38	0xbd3c34d4	-0.04594882
39	0xbd39435a	-0.045230247
40	0xbbb2b5a2	-0.005453781
41	0xbd8a689f	-0.06758236
42	0x3d47c725	0.048773903
43	0xbcdc8cb0	-0.026922554
44	0x3cf86df5	0.03032587
45	0xbd8f5354	-0.069983155
46	0xbd33eac5	-0.043925066
47	0xbd95cc44	-0.07314351
48	0xbd02925d	-0.031877864
49	0x3d9b2370	0.075751185
50	0xbd80631d	-0.06268904
51	0xbcab8c53	-0.020940935
52	0x3d8efaff	0.069814675
53	0x3cf3a13f	0.029739974
54	0xbc9ed819	-0.019390153
55	0x3a34d867	0.00068987015
56	0xbd921c34	-0.071342856
57	0x3cb5aee6	0.022178125
58	0x3d90a4f3	0.070627116
59	0xbd2e61c6	-0.042573713
60	0x3cf3f1b4	0.029778339
61	0x3cee785a	0.029110122
62	0x3d401dc3	0.046903383
63	0x3d84e37a	0.064887
64	0x3d765332	0.060137935
65	0xbc5ad450	-0.013356283
66	0x3cab45ae	0.02090725
67	0xbd4fab37	-0.050700393
68	0xbb86eb9a	-0.0041174414
69	0x3cb17073	0.021660065
70	0x3c6a91a1	0.014316947
71	0xbd51e29a	-0.051241495
72	0x3ce08b9b	0.02741032
73	0x3d5f6397	0.054538336
74	0xbda09c2d	-0.07842288
75	0x3d2d39c5	0.04229142
76	0xbdb22098	-0.08697623
77	0xbd295964	-0.041345015
78	0xbbe600f5	-0.007019157
79	0xbc9dde7d	-0.01927113
80	0x3d145745	0.03621604
81	0xbd26412a	-0.04058949
82	0xbd855a7c	-0.06511399
83	0xbda74b63	-0.08168676
84	0x3cf8e0f9	0.030380713
85	0xbd3fbb27	-0.04680934
86	0x3d1dc81b	0.038520914
87	0x3da79af8	0.08183855
88	0x3d8cc560	0.06873584
89	0xbd8d3e2b	-0.06896623
90	0xbd961a3f	-0.07329225
91	0x3d1bad0f	0.03800684
92	0xbd6659ca	-0.056237973
93	0xbade2c7d	-0.0016950514
94	0x3c6c30a8	0.014415897
95	0x3cb37317	0.021905465
96	0x3ad65f43	0.0016355295
97	0x3da6cb74	0.08144274
98	0xbdb303ae	-0.08740936
99	0xbd45b016	-0.04826363
100	0x3d88c699	0.066785045
101	0xbdae37c8	-0.08506733
102	0xbd32731c	-0.043566808
103	0xbcb5824e	-0.02215686
104	0xbcbf2808	-0.023334518
105	0x3d9190f9	0.071077295
106	0x3da60678	0.081067026
107	0x3d934b6e	0.071921214
108	0xbda21135	-0.07913438
109	0x3db1047b	0.08643433
110	0xbd9ebde7	-0.07751065
111	0x3d043049	0.03227261
112	0x3d9e5376	0.07730763
113	0xbd05fcc4	-0.03271176
114	0xbb38da3d	-0.0028206252
115	0xbca2f095	-0.01989011
116	0x3c540600	0.012940884
117	0x3d8cb63d	0.06870697
118	0x3b74989a	0.0037322403
119	0xbcf2a596	-0.029619973
120	0xbd36cf85	-0.0446315
121	0xbc96056c	-0.018313132
122	0xbd1e4020	-0.038635373
123	0xbc9fda4d	-0.019513274
124	0x3d50b801	0.05095673
125	0x3d68d2a6	0.056841515
126	0xbd1593d5	-0.036517937
127	0x3d63f6d6	0.055655323
128	0xbc2bbdd2	-0.010482268
129	0xbc931049	-0.017952101
130	0xbd856119	-0.065126605
131	0x3c94b9d5	0.018155018
132	0xbd196f27	-0.03745952
133	0x3d391e2d	0.045194793
134	0xbd3ac785	-0.045600433
135	0xbca9b515	-0.02071623
136	0x3c35ef17	0.011104367
137	0x3c9a9229	0.018868523
138	0x3d67fe8f	0.05663925
139	0xbc1ff926	-0.009763991
140	0x3dacc683	0.084363006
141	0xbd352b17	-0.044230547
142	0xbd0cf2e3	-0.034411322
143	0xbc4fdea5	-0.01268736
144	0x3d9e486f	0.07728659
145	0x3b67e334	0.0035383226
146	0x3dac6a38	0.08418697
147	0x3d9b2351	0.075750954
148	0xbd9a0bad	-0.07521758
149	0x3da04575	0.07825748
150	0x3c38f362	0.011288496
151	0xbc1c535f	-0.009541362
152	0x3d24f5b3	0.04027338
153	0xbc86cbdf	-0.016454635
154	0xbcd13f6d	-0.02554294
155	0x3c8d1819	0.017223405
156	0xbd9d537a	-0.076819375
157	0xbd5e9447	-0.054340627
158	0x3d744f84	0.059646145
159	0xbb61a7cb	-0.0034432288
160	0x3d5dd5d0	0.054158986
161	0xbd9588f8	-0.07301515
162	0x3d92f9f4	0.07176581
163	0xbae9470e	-0.0017797665
164	0x3c000a3e	0.007814942
165	0x3d830e5f	0.063992254
166	0x3bae30a1	0.0053158556
167	0xbd73c706	-0.059515975
168	0x3c9a01d2	0.018799696
169	0x3d65d170	0.05610794
170	0xbc825125	-0.015907833
171	0xbd7cf91a	-0.061761
172	0xbda031b5	-0.07821981
173	0xbba01f6c	-0.0048865583
174	0xbdaa2667	-0.08308106
175	0x3d04e551	0.032445256
176	0x3da5cd21	0.08095766
177	0x3b1a80b9	0.002357526
178	0x3b50f473	0.0031883984
179	0x3d3d51a6	0.046220444
180	0x3c32264f	0.010873391
181	0xbc8d75cf	-0.01726809
182	0xbcd4331a	-0.025903273
183	0xbcacf504	-0.021112926
184	0xbc2ef101	-0.010677577
185	0x3d28161f	0.04103672
186	0xbdadc509	-0.08484847
187	0x3d741ad1	0.059595887
188	0xbba591bf	-0.0050527747
189	0xbdb1c5e6	-0.08680324
190	0x3db229f2	0.08699407
191	0xbc8e4126	-0.01736505
192	0x3d8bb03c	0.068207234
193	0xbdb1778b	-0.08665379
194	0x3db4786b	0.088120304
195	0x3b904fdb	0.0044040508
196	0x3d9ccf3f	0.076567166
197	0xbbc7b34a	-0.006094371
198	0xbd9f8fe8	-0.0779112
199	0xbd93392c	-0.07188639
200	0xbc1d58b1	-0.009603665
201	0xbd8e04c0	-0.069345
202	0x3cce33e2	0.025171224
203	0xbd23e10b	-0.04000954
204	0xbd804a9d	-0.06264231
205	0xbd6defde	-0.058090083
206	0x3ce5f977	0.028073056
207	0x3d1e854f	0.03870135
208	0xbd85aa52	-0.06526627
209	0xbd19bc37	-0.03753301
210	0x3d51b219	0.051195238
211	0x3cff2c89	0.031149166
212	0x3d9e40ac	0.07727179
213	0xbc7d438c	-0.015457999
214	0x3c92fd70	0.017943114
215	0xbc607d5a	-0.013701761
216	0x3da9e82c	0.082962364
217	0xbc786d51	-0.015162782
218	0xbd5d7329	-0.054064903
219	0x3daaf0e5	0.08346728
220	0xbcb873dc	-0.022516184
221	0x3cac3739	0.021022426
222	0x3d292434	0.04129429
223	0xbcaf8c9d	-0.021429354
224	0x3d903f5d	0.070433356
225	0x3c44aeff	0.012004613
226	0xbcc10e91	-0.023566516
227	0xbc2c75a0	-0.010526091
228	0xbc6f3adf	-0.014601438
229	0x3cbd4d57	0.023108168
230	0x3d23c5b2	0.03998346
231	0x3db198b9	0.08671708
232	0x3da8fa2e	0.08250843
233	0xbd26fbb3	-0.040767383
234	0xbc139123	-0.009006771
235	0x3d18d33f	0.037310835
236	0xbdb2fd18	-0.0873968
237	0xbd022304	-0.031771675
238	0x3d87dac0	0.0663352
239	0xbcd4314a	-0.02590241
240	0x3d5c1a42	0.05373598
241	0x3d927e7b	0.071530305
242	0x3b2e6a6f	0.0026613732
243	0xbd2eebca	-0.042705335
244	0xbd408437	-0.04700109
245	0xbd3f9090	-0.046768725
246	0x3d0c6177	0.034272637
247	0xbd51d06a	-0.05122415
248	0xbd2fd575	-0.042928178
249	0x3c49d089	0.012317785
250	0xbd8017cb	-0.06254538
251	0xbda068db	-0.078324996
252	0xbd88d2b3	-0.06680813
253	0x3d292f4c	0.04130487
254	0xbd350eb7	-0.044203486
255	0xbd9564b1	-0.07294596

layer3.bias f4 [9]
0	0xbc866d46	-0.016409528
1	0xbc339ffe	-0.010963438
2	0xbd8bb54d	-0.0682169
3	0x3a7c30f8	0.0009620334
4	0x3d943a9d	0.07237742
5	0xbc5631ca	-0.013073394
6	0xbd3b477c	-0.04572247
7	0xbcf7317b	-0.030174961
8	0xbd5deca6	-0.054180764
